2048_Double_DQN.pth (torch, 135824 bytes, 4 tensors)

fc.0.weight f4 [128, 256]
0	0x3dba0e73	0.09084787
1	0x3dc6e031	0.0971073
2	0x3d7d6605	0.06186487
3	0x3d690b56	0.056895576
4	0xbc9a8868	-0.018863872
5	0x3d7de284	0.0619836
6	0xbd5f4a0c	-0.054513976
7	0xbb828070	-0.003982596
8	0x3cb1fa3c	0.021725766
9	0xbcac953c	-0.021067254
10	0x3d11422e	0.035463504
11	0x3c012748	0.007882901
12	0x3d0cb934	0.03435631
13	0x3d24403c	0.04010032
14	0xbce20554	-0.027590431
15	0x3cba1278	0.022713885
16	0x3db7177a	0.08940025
17	0x3e285d92	0.16441944
18	0x3d98b95f	0.07457232
19	0x3df8c0c8	0.12146145
20	0x3d9f7803	0.07786562
21	0x3ccc1567	0.02491255
22	0xbbac64ce	-0.0052610403
23	0x3ccb3d58	0.024809524
24	0x3d6eda8a	0.058313884
25	0x3cf5b540	0.029993653
26	0xbbc5c370	-0.006035261
27	0xbb46d020	-0.0030336455
28	0x3d1181ec	0.035524294
29	0xbd31ec04	-0.043437973
30	0x3caa36bc	0.020778053
31	0xbca9a738	-0.020709619
32	0x3e295359	0.16535701
33	0x3dfa4d20	0.12221742
34	0x3dd85a48	0.10564095
35	0x3dcd7067	0.10031205
36	0x3de34cb2	0.11098613
37	0x3c39c563	0.011338565
38	0x3daf3431	0.085548766
39	0xbd7bf8f5	-0.06151672
40	0xbc36a8c8	-0.011148639
41	0xbd7f46ea	-0.06232349
42	0x3ba9a800	0.005177498
43	0x3c914ba4	0.017736264
44	0xbccf42d4	-0.02530042
45	0x3cd4a540	0.025957704
46	0xbc25ffe8	-0.010131814
47	0xbd5e75fc	-0.054311737
48	0x3e3d16b9	0.184657
49	0x3e2a5589	0.16634192
50	0x3e0e8e95	0.13921578
51	0x3ddc6300	0.1076107
52	0x3d9e752e	0.07737194
53	0x3d476c38	0.04868719
54	0x3d733aa8	0.05938211
55	0xbc4e5178	-0.012592666
56	0xbd47a7e4	-0.048744097
57	0xbcfbcc34	-0.03073702
58	0xbc08b1c8	-0.008343168
59	0xbbe10c40	-0.0068679154
60	0xb9de1600	-0.0004235953
61	0x3d12b4d6	0.03581699
62	0x3ca43eb8	0.020049438
63	0xbd3d48c8	-0.046211988
64	0x3e02224e	0.12708399
65	0x3def7b00	0.11693382
66	0x3e1c83cd	0.15284653
67	0x3d7050e5	0.058670897
68	0x3d006592	0.031346865
69	0x3cda08ac	0.026615463
70	0x3b45d950	0.0030189343
71	0xbba5c32c	-0.0050586667
72	0xbd7a7b1e	-0.06115257
73	0x3d6417be	0.055686705
74	0x3d083fca	0.03326396
75	0xbcf24584	-0.029574163
76	0xbd1fba0e	-0.038995795
77	0x3b0e7f80	0.0021743476
78	0x3d11dcb2	0.035610862
79	0xbd37b758	-0.044852585
80	0x3d99e722	0.07514788
81	0x3e1c518e	0.15265486
82	0x3db66f69	0.089079686
83	0x3dd0dee0	0.1019876
84	0x3d1259db	0.035730224
85	0x3e070c0e	0.13188192
86	0x3daa8c27	0.08327513
87	0xbd2c1c83	-0.04201938
88	0xbd0d5754	-0.03450711
89	0x3cb57eb0	0.022155136
90	0x3b607b40	0.003425315
91	0x3c87af4c	0.01656308
92	0xbd516da2	-0.051129945
93	0xbd09129e	-0.03346502
94	0x3ce85048	0.028358594
95	0xbd433356	-0.04765638
96	0x3ddd849a	0.10816307
97	0x3e04641d	0.12928815
98	0x3e1ba7ba	0.15200701
99	0x3df24add	0.11830685
100	0x3ddc64fc	0.10761449
101	0x3dde291e	0.10847686
102	0x3d3248fb	0.04352663
103	0x3bb618c7	0.005557153
104	0x3d437f0a	0.047728576
105	0x3d798ddc	0.060926303
106	0x3ced28bc	0.028950088
107	0xbcdfd028	-0.027320936
108	0xbd5eae18	-0.054365247
109	0xbd7cad14	-0.061688498
110	0x39e2af00	0.00043236464
111	0xbcc471c4	-0.023980029
112	0x3de994e2	0.1140535
113	0x3e00cd9e	0.12578437
114	0x3e309b09	0.17246641
115	0x3e1f008e	0.15527555
116	0x3d2c9d9c	0.042142496
117	0x3c875d1d	0.016523892
118	0x3d69d737	0.05709001
119	0xbc13750e	-0.009000076
120	0xbd73962a	-0.05946938
121	0x3ca6e538	0.020372972
122	0x3d75152e	0.05983465
123	0xbd4aec9c	-0.049542055
124	0xbc5d2838	-0.013498358
125	0x3c5e11f0	0.013554081
126	0xbd507692	-0.050894327
127	0xbd5b2d58	-0.05351004
128	0x3e2ccee5	0.16875799
129	0x3de648f1	0.11244381
130	0x3e07f9c2	0.13278869
131	0x3dc80da7	0.09768229
132	0x3d8f809d	0.07006953
133	0xbb1d0c46	-0.0023963614
134	0x3cb32b81	0.02187133
135	0x3d65ebec	0.056133196
136	0x3cead5e4	0.028666444
137	0xbc94083c	-0.018070333
138	0x3bfbf150	0.007688679
139	0x3d43ff8e	0.047851138
140	0xbd604e78	-0.054762334
141	0x3d2470ee	0.04014676
142	0xbc99e064	-0.018783756
143	0xbc505178	-0.012714736
144	0x3e1c4075	0.15258963
145	0x3d78518f	0.060624655
146	0x3ddcd8ec	0.10783562
147	0x3e21ea21	0.1581197
148	0x3ded82e5	0.11597232
149	0x3d64d5c4	0.055867925
150	0x3ce08fe9	0.027412372
151	0x3d74f04f	0.05979949
152	0x3cc17004	0.023612984
153	0x3d2d891c	0.042367086
154	0xbd24d9fa	-0.04024694
155	0x3c939c78	0.018018946
156	0x3c370c60	0.011172384
157	0x3c327fa8	0.010894693
158	0x3d6db592	0.058034487
159	0x3d0db6da	0.03459821
160	0x3e2733be	0.16328332
161	0x3e06133b	0.13093273
162	0x3dffb1d3	0.12485089
163	0x3da30e6e	0.079617366
164	0x3d2eb209	0.042650256
165	0x3d300c16	0.042980276
166	0x3cb06f70	0.021537513
167	0xbce6f1d7	-0.02819149
168	0x3cf106e0	0.029422224
169	0x3c9e7f50	0.019347817
170	0xbc91fde0	-0.017821252
171	0xbd4302a8	-0.047609955
172	0x3d7c05e2	0.061529048
173	0x3d405f30	0.046965778
174	0x3cf37f78	0.029723868
175	0x3d7d65d2	0.06186468
176	0x3dbaaacf	0.091146104
177	0x3de09c04	0.109672576
178	0x3da14539	0.07874531
179	0x3d9cb72a	0.07652123
180	0x3c1f5c41	0.009726585
181	0x3db883db	0.090095244
182	0x3d295dae	0.041349106
183	0x3cb833ba	0.022485603
184	0xbd0c967a	-0.034323193
185	0xbbd2fd20	-0.0064388663
186	0x3c06af10	0.008220449
187	0xbc8c231c	-0.017106585
188	0x3d71a36e	0.05899375
189	0xbce9eb70	-0.028554648
190	0x3c9ef960	0.01940602
191	0xbd2db2be	-0.04240679
192	0x3e08af72	0.13348177
193	0x3df00d90	0.11721337
194	0x3e0bcf90	0.13653398
195	0x3df4cb03	0.11952784
196	0x3ce2983d	0.027660483
197	0x3bdee329	0.006801982
198	0x3a8b1aed	0.0010612883
199	0x3d48b624	0.049001828
200	0xbc71f5a0	-0.014768034
201	0x3d38cf8a	0.0451198
202	0xbce3ce2c	-0.027808271
203	0x3d52fca2	0.05151046
204	0x3d7ef9a0	0.06224978
205	0x3d2f7c10	0.042842925
206	0x3d12d3da	0.03584657
207	0x3cbe912c	0.023262583
208	0x3defba9d	0.117055155
209	0x3dece244	0.11566594
210	0x3e0d246f	0.1378343
211	0x3d96bd5c	0.07360336
212	0x3d861f76	0.065489694
213	0x3d71ccd7	0.05903324
214	0xbc8fb7b6	-0.017543655
215	0xbd690304	-0.05688764
216	0xbd192e5a	-0.03739772
217	0x3bf9d390	0.007624097
218	0xbc3dce78	-0.0115848705
219	0x3c5ca9f0	0.013468251
220	0xbc738238	-0.01486259
221	0xbd27965a	-0.04091487
222	0x3c07f4d8	0.008298121
223	0x3d2d62ae	0.042330436
224	0x3d95da9f	0.07317089
225	0x3e402483	0.18763928
226	0x3df1412f	0.11780011
227	0x3e28ddc0	0.16490841
228	0x3cb982eb	0.022645434
229	0xbc1dc5fd	-0.009629724
230	0x3d4c6714	0.04990299
231	0xbd448249	-0.047975812
232	0xbd51ca84	-0.051218525
233	0x3d022bfa	0.03178022
234	0x3cf88a44	0.030339368
235	0xbd6945c4	-0.0569513
236	0x3d38364c	0.044973657
237	0xbc471cf0	-0.012152895
238	0x3d3e0f32	0.04640121
239	0xbd163b90	-0.036677897
240	0x3db9ea16	0.090778515
241	0x3dd80710	0.10548222
242	0x3db0f663	0.086407445
243	0x3c00cc43	0.0078612
244	0x3ca586b7	0.020205839
245	0xbcb5639d	-0.022142226
246	0xbcd7dbf0	-0.026349992
247	0xb7152000	-8.888543e-06
248	0x3b65e320	0.0035078004
249	0xbd7a6a26	-0.061136387
250	0x3d03ae2a	0.032148518
251	0xbd1ce6d4	-0.038306072
252	0x3d1c035a	0.038089134
253	0x3d6a9426	0.05727019
254	0xbcaabf5c	-0.0208432
255	0x3be5daf0	0.007014625

fc.0.bias f4 [128]
0	0x3e2c7fad	0.1684558
1	0x3dbeccc0	0.09316397
2	0xbd86b12a	-0.0657676
3	0x3e04010e	0.12891027
4	0x3e41c338	0.18922126
5	0xbd39018c	-0.04516749
6	0xbc1a698f	-0.009424581
7	0x3ddcb9e5	0.10777644
8	0x3df3ee55	0.119106926
9	0x3e07ac34	0.13249284
10	0xbdbb385a	-0.091416076
11	0x3e41e2fd	0.18934245
12	0x3baded3c	0.0053078216
13	0x3e2a4691	0.16628481
14	0xbda5c96d	-0.080950595
15	0x3df27d72	0.11840333
16	0x3e6b637f	0.22987173
17	0x3e1e41d2	0.15454796
18	0x3e1a2b77	0.15055643
19	0x3e5f8131	0.21826626
20	0x3e3dd816	0.18539461
21	0x3e71a70b	0.23598878
22	0xbc86ad54	-0.016440071
23	0x3dd4c3a1	0.10388876
24	0x3e11e78f	0.14248489
25	0x3dd1f9a4	0.10252693
26	0x3c78a728	0.015176572
27	0xbda1a354	-0.078924805
28	0x3e107a9f	0.14109276
29	0xbd9fb307	-0.07797819
30	0x3e1b10be	0.15143105
31	0x3e050ed7	0.12993942
32	0x3e3e15e0	0.18563032
33	0x3e21a164	0.15784222
34	0xbd5d3477	-0.054005112
35	0x3d9de031	0.07708777
36	0x3e488af6	0.1958426
37	0x3b1103e8	0.0022127572
38	0x3e409235	0.18805774
39	0x3e68d65c	0.22738022
40	0x3bc6e330	0.0060695633
41	0x3e1a151e	0.15047118
42	0x3e391ae2	0.18076661
43	0x3e029547	0.12752257
44	0x3e679eda	0.22619191
45	0x3dac1103	0.08401682
46	0x3e512c42	0.2042704
47	0x3c69bf09	0.014266738
48	0x3d9d38cb	0.07676848
49	0x3e2b02c0	0.16700268
50	0x3e30568b	0.17220514
51	0x3e165ecb	0.14684598
52	0xbd84d699	-0.06486244
53	0x3af088db	0.0018351333
54	0x3e32c384	0.17457396
55	0x3e298f30	0.16558528
56	0x3e32d7ce	0.17465135
57	0x3e3d2e87	0.1847478
58	0x3e5f4483	0.21803479
59	0x3e35a246	0.17737684
60	0xbae0fb88	-0.0017164806
61	0x3e437d23	0.19090705
62	0x3d788c69	0.06068078
63	0xbd85a9a3	-0.06526496
64	0x3e5ae5d9	0.21376742
65	0x3e65721c	0.2240681
66	0x3dfa56c2	0.12223579
67	0x3e15a123	0.1461225
68	0xbd75ceda	-0.060011722
69	0x3e2bc65d	0.16774888
70	0xbd8112aa	-0.06302388
71	0xbd39ece5	-0.045391936
72	0x3e437fdc	0.19091743
73	0x3db5a488	0.088692725
74	0x3e28a616	0.16469607
75	0x3e4e15f2	0.20125559
76	0x3e33d03b	0.17559902
77	0x3e06f976	0.131811
78	0xbd70d260	-0.05879438
79	0x3e6ef5d4	0.23335963
80	0xbcf33ebf	-0.029693006
81	0x3dd6cd88	0.10488421
82	0x3e1bba0d	0.15207691
83	0x3dc6e97d	0.09712503
84	0xbd05a508	-0.03262809
85	0x3e60c42f	0.21949838
86	0x3e18d781	0.14925958
87	0x3e769b36	0.24082646
88	0x3dcac99b	0.099017344
89	0x3d9f881f	0.07789635
90	0x3e05204e	0.13000605
91	0xbd7b2f09	-0.061324153
92	0x3e26f19a	0.16303101
93	0x3e508cae	0.20366165
94	0x3df1bc66	0.11803512
95	0x3c43b2b0	0.011944458
96	0x3e050e5b	0.12993757
97	0x3e560acd	0.20902558
98	0x3e036bdd	0.12834115
99	0xbd22d2b0	-0.03975171
100	0x3dec1f56	0.11529414
101	0x3dae31c4	0.08505586
102	0x3e026362	0.12733224
103	0x3e410f74	0.18853551
104	0x3c436c4f	0.011927678
105	0x3e0f695b	0.14005034
106	0xbd54f847	-0.05199459
107	0x3e557d2d	0.20848532
108	0x3de22199	0.110415645
109	0x3e1e56a0	0.15462732
110	0x3dd17385	0.10227112
111	0x3e06cf1a	0.1316494
112	0x3e41c1b8	0.18921554
113	0xbd699cb2	-0.057034202
114	0x3e36ef97	0.17864834
115	0x3e033152	0.12811783
116	0x3e1b50e6	0.15167579
117	0x3e694fd3	0.22784357
118	0xbdb58833	-0.088638686
119	0x3dfa374b	0.122175775
120	0x3e63192f	0.22177576
121	0x3e4c9425	0.19978388
122	0xbd3d9986	-0.04628899
123	0x3e497fcc	0.19677657
124	0x3e21da72	0.15805987
125	0x3e280da8	0.1641146
126	0x3e1193e2	0.14216569
127	0x3e62cdfe	0.22148892

fc.3.weight f4 [4, 128]
0	0x3e74afef	0.23895238
1	0x3df83809	0.12120063
2	0xbce29d36	-0.027662855
3	0x3e5522af	0.20814012
4	0x3e49417b	0.19653885
5	0xbc04de8e	-0.008109702
6	0xbd63ab16	-0.055583082
7	0x3d7193a9	0.05897871
8	0x3dc9415b	0.09826919
9	0x3e345023	0.17608695
10	0xbd188da2	-0.037244447
11	0x3e1be2b0	0.15223193
12	0xbd4cd454	-0.05000718
13	0x3e222614	0.15834838
14	0xbcecaf98	-0.028892323
15	0x3e38583b	0.18002407
16	0x3e3aa9ad	0.18228789
17	0x3e6bd4c5	0.23030384
18	0x3df0283e	0.117264256
19	0x3dc1d7ed	0.09465013
20	0x3e0eeaa3	0.13956694
21	0x3e2a8dce	0.16655657
22	0xbcbe1605	-0.02320386
23	0x3e378ee3	0.179256
24	0x3da512a1	0.08060194
25	0x3e5a035f	0.21290348
26	0xbd3acbdd	-0.045604575
27	0xbbd9944a	-0.006639992
28	0x3e10e1e7	0.14148675
29	0xbd3fa4bc	-0.046787962
30	0x3e2892a3	0.16462187
31	0x3dd6fdb3	0.10497608
32	0x3e0742c8	0.13209069
33	0x3e33701a	0.17523232
34	0xbb1d01a7	-0.0023957284
35	0x3d4f058f	0.05054241
36	0x3dc9fcf5	0.09862701
37	0xbd3af829	-0.04564682
38	0x3e164dde	0.14678141
39	0x3e4ff93e	0.20309922
40	0x3debe9bf	0.11519193
41	0x3e1e1e6e	0.15441296
42	0x3e63857d	0.2221889
43	0x3dd2ff3b	0.103025876
44	0x3de6e896	0.11274831
45	0x3e5a566d	0.21322031
46	0x3e47f815	0.1952823
47	0x3b779bab	0.0037781994
48	0x3e2dbf70	0.16967559
49	0x3e5eba1d	0.21750684
50	0x3e2e1cd1	0.1700318
51	0x3e20f09e	0.15716788
52	0xbd182743	-0.037146818
53	0x3e0e2735	0.13882144
54	0x3e4c3946	0.19943723
55	0x3e654893	0.22390966
56	0x3e54f3c3	0.20796113
57	0x3d9391a6	0.072055146
58	0x3e5d4076	0.21606621
59	0x3e4fdab2	0.2029827
60	0xbd3df84d	-0.046379376
61	0x3e7c3865	0.24630888
62	0x3e0a7ee6	0.1352497
63	0x3ca4d389	0.0201204
64	0x3e57a95a	0.21060696
65	0x3d7dd66e	0.061972074
66	0x3de65a54	0.112476975
67	0x3e3a685e	0.18203875
68	0x3d95f188	0.07321459
69	0x3d77f51d	0.060536493
70	0xbc4f00b3	-0.012634444
71	0xbd703c10	-0.05865103
72	0x3e28bfba	0.16479388
73	0x3de38a78	0.11110395
74	0x3e1bd6c5	0.15218647
75	0x3e26f735	0.1630524
76	0x3e24b93f	0.16086291
77	0x3e27794b	0.16354863
78	0xbd3d2d83	-0.04618598
79	0x3de86836	0.11348002
80	0x3c9c85fc	0.019106857
81	0x3d90ac35	0.07064096
82	0x3dcb3490	0.09922135
83	0x3e1477d0	0.1449883
84	0x3cc20476	0.023683768
85	0x3e2a791a	0.16647759
86	0x3e0395dd	0.12850137
87	0x3e0bc109	0.13647856
88	0x3e2359b6	0.15952191
89	0x3da8e9bd	0.08247707
90	0x3d5ee6d1	0.054419342
91	0xbd0bdf00	-0.034148216
92	0x3d9f6530	0.07782972
93	0x3e0406b4	0.12893182
94	0x3e3074c2	0.1723204
95	0xbd46cada	-0.048533298
96	0x3d43ef83	0.047835838
97	0x3e6069bb	0.21915333
98	0x3d7afca9	0.06127611
99	0xbc7f5393	-0.0155838905
100	0x3df3c385	0.11902527
101	0x3e24ad77	0.16081797
102	0x3e337a48	0.17527115
103	0x3e37fe3c	0.17968076
104	0xbb9fffa6	-0.0048827706
105	0x3e33bc9e	0.1755242
106	0xbd0e54bb	-0.034748774
107	0x3e000f49	0.12505831
108	0x3e0dceeb	0.13848464
109	0x3e186172	0.14880922
110	0x3e66bea0	0.22533655
111	0x3e2926c0	0.16518688
112	0x3e36b2ee	0.17841694
113	0xbd77f07b	-0.060532074
114	0x3e478313	0.19483595
115	0x3e172fd7	0.14764343
116	0x3e3f0e09	0.18657698
117	0x3e0a6343	0.13514428
118	0xbbe90740	-0.00711146
119	0x3e6a22ae	0.22864792
120	0x3de809cd	0.11329994
121	0x3e56a995	0.20963128
122	0x3c1d3a3c	0.009596404
123	0x3dd91bd3	0.1060101
124	0x3da58d6d	0.080836155
125	0x3e3130d7	0.17303787
126	0x3d9390d5	0.07205359
127	0x3e6eda62	0.23325494
128	0x3e38ad26	0.18034801
129	0x3db6776a	0.08909495
130	0x3d92245b	0.071358405
131	0x3e618bd2	0.22025993
132	0x3e445142	0.19171622
133	0xbd6194e2	-0.055073626
134	0xbc42ec7f	-0.011897205
135	0x3dea11eb	0.11429199
136	0x3e4aa74a	0.19790378
137	0x3e1a7d7b	0.1508693
138	0x3cf11b05	0.02943183
139	0x3e507474	0.20356923
140	0xbd001e73	-0.03127904
141	0x3dd89944	0.10576108
142	0xbd1621ed	-0.036653448
143	0x3e513278	0.20429409
144	0x3e272924	0.16324288
145	0x3e5304e0	0.20607328
146	0x3da6b39d	0.08139727
147	0x3e56b41e	0.20967147
148	0x3e2985ad	0.165549
149	0x3e398c8b	0.18120019
150	0xbb856767	-0.0040711644
151	0x3da7a428	0.08185607
152	0x3e1f498b	0.15555398
153	0x3df9d5d6	0.12198989
154	0xbd07bc0b	-0.033138316
155	0x3d5dcd21	0.054150704
156	0x3e6c879f	0.2309861
157	0x3d435b9c	0.047694787
158	0x3e2797d7	0.16366516
159	0x3e13d15a	0.1443533
160	0x3e58f71e	0.21188018
161	0x3e07513a	0.13214579
162	0xbcc2d8ad	-0.02378496
163	0x3dfee61f	0.12446236
164	0x3e1dec1a	0.15422097
165	0x3cb72f71	0.022361489
166	0x3e18f17b	0.14935867
167	0x3dae4f0f	0.08511173
168	0x3d7c2c82	0.061565883
169	0x3db2ba41	0.08726931
170	0x3dc42442	0.09577228
171	0x3d6c8afc	0.057749733
172	0x3dca160b	0.098674856
173	0x3d417779	0.04723308
174	0x3e769a0e	0.24082205
175	0xbbbc2013	-0.005741128
176	0x3b7b7352	0.0038368297
177	0x3da0df80	0.07855129
178	0x3e415e98	0.18883741
179	0x3dcf6ef7	0.10128587
180	0x3df053e8	0.11734754
181	0xba5f24cc	-0.0008512258
182	0x3e2f2297	0.17103039
183	0x3e0584ce	0.13038942
184	0x3e72fb7b	0.23728745
185	0x3e629b6f	0.22129606
186	0x3e20607c	0.15661806
187	0x3d9c8df8	0.07644266
188	0x3d382799	0.04495964
189	0x3e022d69	0.12712635
190	0x3d537502	0.05162526
191	0xbca0c43a	-0.019624818
192	0x3db97cde	0.0905702
193	0x3e5b2945	0.21402462
194	0x3e3f7970	0.18698668
195	0x3e4a6afd	0.19767375
196	0xbd483247	-0.048876073
197	0x3e4919e4	0.19638783
198	0xbda0dd98	-0.07854766
199	0xbcbf40a3	-0.02334625
200	0x3e23ea45	0.16007335
201	0x3e411236	0.18854603
202	0x3e5e73c5	0.2172385
203	0x3e083ea3	0.13305144
204	0x3e48d009	0.19610609
205	0x3e3dee70	0.18547988
206	0xbca249d0	-0.019810587
207	0x3e52c965	0.20584638
208	0xbc12d64c	-0.008962225
209	0x3e204abf	0.15653513
210	0x3e4dcad0	0.20096898
211	0x3d6ccfd9	0.057815406
212	0xbca42361	-0.020036401
213	0x3e2f5185	0.17120941
214	0x3d9b64e1	0.075876005
215	0x3e1943cf	0.14967273
216	0x3e3f95fd	0.1870956
217	0x3e237d66	0.15965804
218	0x3dd4a372	0.10382737
219	0xbcb732be	-0.022363063
220	0x3e5c1347	0.21491729
221	0x3e57ef0c	0.21087283
222	0x3e49d122	0.19708684
223	0xbd50651f	-0.050877687
224	0x3d5d6160	0.054047942
225	0x3dce4ea4	0.10073593
226	0x3e5087f7	0.20364366
227	0x3d9c6138	0.076357305
228	0x3e530128	0.2060591
229	0x3e4ac703	0.1980248
230	0x3db7b0de	0.089692816
231	0x3e0a5f9b	0.13513033
232	0x3c926efd	0.017875189
233	0x3e0dfa55	0.13865025
234	0x3d0a5721	0.0337745
235	0x3dfe587f	0.12419223
236	0x3d418c94	0.047253206
237	0x3e2b4641	0.16726018
238	0x3d855e31	0.06512106
239	0x3def2407	0.116767935
240	0x3e4ed27d	0.20197482
241	0xbd7afa9b	-0.061274152
242	0x3e657ccd	0.22410889
243	0x3e231040	0.15924168
244	0x3e5b5012	0.21417263
245	0x3e5f2d29	0.21794571
246	0xbd41fcd0	-0.04736024
247	0x3d3b7f1f	0.04577553
248	0x3e61d13a	0.2205247
249	0x3e3a9ad1	0.1822312
250	0xbd2d0a8a	-0.04224638
251	0x3e658966	0.22415695
252	0x3e5d63e8	0.21620142
253	0x3e373b04	0.17893606
254	0x3d958328	0.07300407
255	0x3de6ef23	0.112760805

fc.3.bias f4 [4]
0	0x3e145510	0.14485574
1	0x3d58b20c	0.052904174
2	0x3e262414	0.162247
3	0x3e011eff	0.1260948
