2048_dueling_dqn_model.pth (torch, 270538 bytes, 9 tensors)

fc1.0.weight f4 [128, 256]
0.016229145 -0.03165053 -0.035796743 0.02875769 -0.053375017 -0.062183246 -0.021231472 -0.009535611
-0.0008395389 -0.05072318 -0.017714255 -0.026852898 -0.00048799068 -0.0028556958 0.030617662 -0.02225881
-0.041432273 0.057144236 0.010812007 0.048555654 -0.01587672 0.04998965 -0.024182215 0.06039136
-0.034434944 0.0213935 -0.029372118 0.020653188 -0.027093574 0.027160227 0.059559606 -0.056927413
-0.057318576 -0.015032039 0.026669111 -0.0067769415 0.027731469 0.046848826 -0.04174482 -0.06187337
-0.05020304 -0.029770993 -0.015787967 0.01657556 -0.008383654 -0.0502341 0.03972078 -0.034411065
0.009576102 -0.042412873 0.010402816 0.0032607953 -0.022098254 -0.053806413 0.014746651 -0.041700162
0.060182795 -0.020164229 -0.058546007 0.05020441 -0.0038053617 -0.043010063 -0.0023685172 -0.03349626
0.04277902 -0.043620087 0.017572967 -0.052364774 -0.039753348 0.013569452 0.025222395 -0.03516125
-0.005397871 0.02148877 0.0193782 -0.0565352 -0.008769289 -0.009506807 0.017405942 -0.015951723
-0.010238507 -0.01935665 0.053716246 0.03566162 0.058375508 -0.030619327 0.045205593 -0.0087226555
0.019149795 0.014614657 0.027996756 -0.0045952722 0.024929158 -0.029489316 -0.00075564533 -0.061519608
0.03947997 0.021172646 -0.010779054 0.019478012 0.059911985 0.0075759427 0.020390624 -0.054755263
-0.02036713 0.029301524 0.05417504 0.028280325 -0.051986054 -0.05819661 -0.027336538 -0.019274682
-0.05089094 -0.019771935 -0.0004859461 -0.03231011 0.03073995 -0.00834387 0.060689144 0.024978496
-0.027348205 -0.039033398 0.05925587 0.05252167 -0.0046646 0.054059274 -0.029432602 0.009673938
-0.04182983 0.0050428826 -0.023695292 0.009421861 0.043740522 0.026305316 -0.027716592 0.06083709
-0.037762262 -0.01082544 -0.015607052 -0.011377849 -0.029476285 0.043684848 0.040566713 -0.046772167
0.04133151 -0.03335946 -0.019105071 0.028219284 -0.019445602 0.0016768127 0.003983688 0.029684827
0.06025333 0.057981335 -0.023418628 0.01106099 -0.022496104 0.044785514 -0.0062932223 0.028300777
-0.02264013 -0.015136724 0.020546699 -0.0077854735 -0.0046800296 -0.038763456 0.002479724 0.054713763
0.05984643 -0.052051134 -0.03880333 0.049786232 -0.048503518 0.004027225 -0.025425985 -0.014617123
-0.002670547 -0.05360221 -0.038123 0.042426154 -0.03944424 0.06260339 0.026465278 -0.0005138591
0.057891138 -0.060068704 -0.036252536 0.00023980439 0.005276814 -0.0050422996 0.0028816536 0.05180783
-0.028605983 0.054020595 0.04121645 0.032957505 0.028766535 -0.031562947 -0.0424942 0.017998494
0.044731535 -0.0068969503 0.015751429 0.05850879 0.0016232952 0.03386484 0.021011107 -0.0425084
0.045491744 -0.062477667 0.041938957 -0.012071888 0.059474375 -0.0044399933 -0.028988644 -0.02068849
-0.008660607 -0.006882377 0.05310671 -0.031522594 0.055840105 0.052627422 -0.013354726 0.047580175
0.0156985 0.005571931 -0.0030885136 -0.031763382 0.045336302 0.006319821 -0.006499447 0.049832992
0.026448019 0.045319498 0.009402998 -0.047227293 -0.005604051 -0.023867972 -0.02585093 -0.05251178
-0.027647587 -0.04656527 -0.05438647 -0.05420947 -0.04016352 -0.033451125 0.046855994 0.009754688
-0.020828158 -0.051258005 -0.0056901425 0.008119494 0.059366666 -0.027949415 0.053912565 0.038833715
00000000: fcf2 843c fca3 01bd 9b9f 12bd 3f95 eb3c
00000010: c39f 5abd dcb3 7ebd a0ed adbc 403b 1cbc
00000020: 8014 5cba 1cc3 4fbd 7c1d 91bc 9cfa dbbc
00000030: 00d9 ffb9 a026 3bbb e4d1 fa3c 1c58 b6bc
00000040: e3b4 29bd 1310 6a3d d824 313c 4be2 463d
00000050: e50f 82bc f2c1 4c3d c819 c6bc ee5c 773d
00000060: a80b 0dbd 6c41 af3c cc9d f0bc e030 a93c
00000070: 58f3 ddbc 207f de3c c6f4 733d b82c 69bd
00000080: e2c6 6abd f148 76bc 2e79 da3c 1b11 debb
00000090: 1b2d e33c 8ee4 3f3d 9efc 2abd ee6e 7dbd
000000a0: b4a1 4dbd 4ce2 f3bc c455 81bc 78c9 873c
000000b0: 985b 09bc 46c2 4dbd 42b2 223d 9ef2 0cbd
000000c0: 15e5 1c3c 1fb9 2dbd 9370 2a3c 11b3 553b
000000d0: 6607 b5bc 1d64 5cbd f09b 713c cacd 2abd
000000e0: 3c82 763d 742f a5bc f0cd 6fbd 24a3 4d3d
000000f0: 6063 79bb 522b 30bd 2039 1bbb 6033 09bd
00000100: 0e39 2f3d faaa 32bd 2ff5 8f3c 727c 56bd
00000110: 68d4 22bd 6852 5e3c 329f ce3c 3e05 10bd
00000120: a0e0 b0bb 3809 b03c 08bf 9e3c 7491 67bd
00000130: 10ad 0fbc 70c2 1bbc e896 8e3c 30ad 82bc
00000140: 69bf 27bc d691 9ebc 9105 5c3d eb11 123d
00000150: 281b 6f3d 62d5 fabc 8029 393d 78e9 0ebc
00000160: 08e0 9c3c 5072 6f3c 7459 e53c f093 96bb
00000170: 3c38 cc3c 9493 f1bc 8016 46ba fcfb 7bbd
00000180: c0b5 213d 4272 ad3c a19a 30bc 5a90 9f3c
00000190: 4566 753d 9d3f f83b 3d0a a73c 0e47 60bd
000001a0: f8d8 a6bc c009 f03c a6e6 5d3d 24ac e73c
000001b0: 54ef 54bd 925f 6ebd e0f0 dfbc f0e5 9dbc
000001c0: 0573 50bd c1f8 a1bc 95c6 feb9 9b57 04bd
000001d0: 59d2 fb3c bab4 08bc 2e95 783d b49f cc3c
000001e0: 5809 e0bc 7ce1 1fbd 48b6 723d f620 573d
000001f0: 80d9 98bb 426d 5d3d a41c f1bc 707f 1e3c
00000200: c155 2bbd c43e a53b a11c c2bc 265e 1a3c
00000210: 4329 333d 3f7e d73c e80d e3bc 5030 793d
00000220: 9aac 1abd 305d 31bc b8b4 7fbc 286a 3abc
00000230: 4078 f1bc e2ee 323d 4829 263d 2c94 3fbd
00000240: 3b4b 293d eea3 08bd 3d82 9cbc 212c e73c
00000250: 624c 9fbc 7fc8 db3a 9989 823b 982d f33c
00000260: 32cc 763d d67d 6d3d 6cd8 bfbc 2839 353c
00000270: c049 b8bc 0471 373d 6037 cebb 08d7 e73c
00000280: cb77 b9bc 0600 78bc 8d51 a83c 491d ffbb
00000290: ef5a 99bb 6ec6 1ebd dd82 223b 8a1b 603d
000002a0: 8821 753d 9233 55bd 3ef0 1ebd a6ec 4b3d
000002b0: a0ab 46bd d0f6 833b 284a d0bc a87c 6fbc
000002c0: 5804 2fbb fe8d 5bbd dd26 1cbd 0cc7 2d3d
000002d0: 4990 21bd 3536 803d b6cd d83c 80b4 06ba
000002e0: 421f 6d3d 9a0a 76bd 8a7d 14bd 0074 7b39
000002f0: 20e9 ac3b e039 a5bb 20da 3c3b 7234 543d
00000300: 1857 eabc b344 5d3d 95d2 283d 73fe 063d
00000310: cca7 eb3c 2648 01bd 660e 2ebd 9471 933c
00000320: 6a38 373d d0ff e1bb 2409 813c eaa6 6f3d
00000330: c0c4 d43a dcb5 0a3d 7c1f ac3c 4a1d 2ebd
00000340: 8d55 3a3d 95e8 7fbd 2fc8 2b3d 2bc9 45bc
00000350: 679b 733d 5d7d 91bb 9879 edbc e87a a9bc
00000360: 38e5 0dbc 9085 e1bb 6c86 593d d61d 01bd
00000370: 98b8 643d da8f 573d c8cd 5abc 6ee3 423d
00000380: 249a 803c bf94 b63b a968 4abb 521a 02bd
00000390: 8fb2 393d 8016 cf3b 50f9 d4bb ae1d 4c3d
000003a0: 84a9 d83c f0a0 393d 080f 1a3c 6871 41bd
000003b0: 30a2 b7bb c486 c3bc 54c5 d3bc 9816 57bd
000003c0: 317d e2bc 39bb 3ebd 59c4 5ebd c00a 5ebd
000003d0: 8182 24bd 0c04 09bd 12ec 3f3d 20d2 1f3c
000003e0: d09f aabc eaf3 51bd 6074 babb a007 053c
000003f0: 762a 733d 2cf6 e4bc 6cd3 5c3d 1a10 1f3d

fc1.0.bias f4 [128]
-0.021880377 0.0018104503 0.033395495 -0.04604176 0.022446249 -0.009327214 0.014639224 0.010572178
-0.05468199 0.062502496 -0.013608824 0.019070476 -0.05089572 0.043828633 -0.05540093 0.03638794
-0.0047786366 -0.019907124 0.009134459 -0.013005548 -0.016943369 -0.02715704 -0.017852431 -0.04266807
0.040357146 0.051007714 0.03452258 0.02355363 0.042325817 0.011774853 0.026662515 0.072855294
-0.037845418 0.057430763 -0.0022354524 -0.037467588 0.035108007 -0.010985332 0.00662929 -0.040515818
-0.031510092 -0.009268288 -0.04139082 0.03577365 0.025007555 0.05261017 -0.012843347 0.030489873
0.06375578 0.010583508 0.03829875 -0.0496297 0.021148335 0.066841945 0.021742437 -0.04300367
0.022281896 -0.020644462 0.039757542 -0.005639882 0.06782249 0.049355075 0.00012361724 -0.038508527
0.041846424 -0.034501255 0.017017893 -0.055455744 0.054476094 0.0381498 0.017777406 0.030797228
0.033056445 0.041292682 0.045515645 0.026168555 -0.04188363 0.022467392 0.052984755 -0.052475303
0.07035092 -0.057452478 -0.014483696 0.03887417 0.0072958106 -0.058336522 -0.019036938 -0.02869827
-0.016025817 -0.051960602 0.067906216 -0.039023925 0.004259546 -0.031318706 0.027591152 0.050680052
0.01791092 0.02756134 -0.026785782 -0.06236126 -0.06648124 -0.024056062 0.014598236 -0.008154044
0.05828978 -0.022166187 -0.017697448 0.0022434941 0.055945687 0.032675724 0.048954885 -0.016842693
-0.021914823 0.06108061 0.05523966 -0.06344004 0.037776228 0.028961675 -0.047297683 -0.03945305
0.037211858 -0.0010964472 0.041069552 -0.039796323 0.023376212 -0.06547246 0.023506962 0.03321887
00000000: 7a3e b3bc a24c ed3a b7c9 083d 4996 3cbd
00000010: 32e1 b73c 2cd1 18bc 5bd9 6f3c ee36 2d3c
00000020: 39fa 5fbd 4f01 803d 8cf7 5ebc b039 9c3c
00000030: 0878 50bd a785 333d 16ec 62bd 850b 153d
00000040: 1c96 9cbb 4414 a3bc b3a8 153c 3915 55bc
00000050: d2cc 8abc 7178 debc 433f 92bc b7c4 2ebd
00000060: 894d 253d 77ed 503d 8d67 0d3d 8bf3 c03c
00000070: d65d 2d3d 50eb 403c 596b da3c 2835 953d
00000080: cc03 1bbd 853c 6b3d ab80 12bb 9d77 19bd
00000090: 6acd 0f3d d2fb 33bc 843a d93b eaf3 25bd
000000a0: ba10 01bd 04da 17bc 6c89 29bd 6487 123d
000000b0: a5dc cc3c c37d 573d e76c 52bc e6c5 f93c
000000c0: 6492 823d 7366 2d3c 26df 1c3d 8348 4bbd
000000d0: 463f ad3c 6ee4 883d 321d b23c 9e24 30bd
000000e0: 8688 b63c 931e a9bc ced8 223d c2ce b8bb
000000f0: 85e6 8a3d 8c28 4a3d 409f 0139 1ebb 1dbd
00000100: 2867 2b3d 3051 0dbd 1c69 8b3c 9025 63bd
00000110: 5322 5f3d f742 1c3d eca1 913c 784a fc3c
00000120: 3266 073d 8422 293d 9d6e 3a3d 705f d63c
00000130: 2b8e 2bbd 890d b83c 8b06 593d 58f0 56bd
00000140: 2514 903d 4a53 6bbd 064d 6dbc 863a 1f3d
00000150: b211 ef3b 47f2 6ebd 5af3 9bbc a218 ebbc
00000160: 9348 83bc a4d4 54bd 6a12 8b3d 8dd7 1fbd
00000170: a993 8b3b 0b48 00bd d706 e23c e395 4f3d
00000180: ecb9 923c 52c8 e13c db6d dbbc 856e 7fbd
00000190: 5127 88bd 3811 c5bc 712d 6f3c 8a98 05bc
000001a0: 44c1 6e3d dd95 b5bc 3dfa 90bc 9607 133b
000001b0: 4e27 653d fbd6 053d eb84 483d b0f9 89bc
000001c0: b786 b3bc a92f 7a3d fb42 623d daec 81bd
000001d0: 3fbb 1a3d 0941 ed3c 37bb 41bd 8599 21bd
000001e0: 766b 183d aab6 8fba 8c38 283d 7801 23bd
000001f0: 787f bf3c 6d16 86bd ac91 c03c 8310 083d

value_stream.0.weight f4 [128, 128]
0.07902037 0.08121078 0.05370656 -0.031899676 0.047920894 -0.06963531 0.06687657 0.09187794
0.09342214 0.07346374 -0.061544966 -0.00059055793 0.013845855 0.067244746 -0.012428313 0.07848205
0.009615728 0.012949786 -0.02123397 -0.0124254115 -0.018924301 0.0149529325 -0.067136206 0.06294309
-0.017812705 0.081273325 -0.07396082 -0.06726421 0.08709149 0.0712386 0.050086856 -0.05551288
0.0929884 0.035153233 -0.071613036 0.027461816 -0.057091538 0.018786864 -0.04073094 0.058982793
-0.038190965 -0.0039821095 0.057883732 0.017565506 -0.02919868 -0.0751543 0.021252668 0.052387394
0.09721551 -0.06319325 0.02026371 0.094104685 0.05595715 -0.06464206 -0.028655669 -0.017745921
0.04267641 -0.030037053 0.060116675 0.05516896 -0.027664976 -0.024128323 -0.0542516 0.059567392
-0.01999 -0.0042311386 0.008325536 -0.06768516 -0.00030777353 0.0569768 0.065758556 0.09695517
-0.044649754 -0.014700753 -0.066466294 0.08040669 0.045594364 -0.019889638 -0.014248761 0.0823327
0.05103758 0.09284024 -0.017562028 0.009932659 -0.055972904 -0.02884916 0.05224829 -0.076168895
-0.06142398 -0.057302672 0.03908686 -0.0737478 -0.051235776 0.060071215 0.026869666 0.07213903
0.0029907662 0.01837101 -0.033071324 -0.06206633 -0.0048063365 0.04602014 0.08972898 -0.057872042
0.0023564831 -0.050716646 0.09747834 -0.0032346132 -0.01665309 -0.035336338 -0.02160671 -0.04966788
-0.013509962 0.025787639 0.08456739 0.037226863 -0.049620938 -0.0045581083 -0.008755091 0.017603494
0.09610072 0.04637051 -0.012372326 0.0032401802 0.03883887 0.034641337 -0.0713106 0.0066414685
0.04093077 0.025131242 -0.028038908 0.013009553 -0.002511533 -0.047423597 0.06309153 0.08814694
-0.066805266 -0.0704851 0.025215609 -0.027880196 0.06524683 0.0018349031 0.011887595 0.043812748
0.08832922 -0.06468909 0.094057344 0.0008340164 -0.0057914844 0.07136327 -0.017430475 0.00752401
0.09322095 -0.0037967956 0.055567864 0.09563749 -0.047175735 0.081599295 -0.010644085 -0.024038156
-0.051459003 0.04357307 -0.036438346 -0.06177752 0.07169264 -0.058046516 -0.04835836 -0.01032147
0.01243894 0.022830226 -0.06975004 -0.07444332 -0.041781582 0.03291446 0.0028438887 0.017847955
0.017610835 0.092377976 0.055911522 -0.023683785 -0.020451905 0.0455502 0.050963484 0.02433547
0.009092351 0.05032858 -0.015375715 0.03981466 -0.05769193 -0.07437143 0.01709454 -0.037423402
0.024117187 -0.06742665 -0.009214567 -0.025715105 0.040258035 0.06488317 -0.02558363 -0.023574116
0.0639851 -0.07326357 -0.046920694 0.097422816 -0.06500839 -0.010759695 -0.054113 0.087097794
-0.069858335 -0.03565948 -0.001151559 0.009285229 0.0869119 -0.07709406 0.034641635 -0.0022895606
0.059492696 0.06407024 0.044817258 0.0329483 -0.0331491 0.027098121 0.050696805 0.0048566842
0.012696686 -0.019147705 0.0054202355 0.09582879 -0.068372115 -0.0033305443 0.052525576 0.04605475
-0.014933186 0.04083163 -0.046578247 0.026299054 0.02148989 -0.06199084 0.032998715 -0.010778376
0.06507163 0.03484607 -0.044310622 -0.064542055 0.060599778 -0.020224273 0.040133618 -0.0671165
0.032532334 -0.025665037 -0.024470303 0.060439263 0.051164463 0.08414369 -0.050820157 -0.060459122
00000000: 6fd5 a13d d651 a63d 69fb 5b3d 3ca9 02bd
00000010: b348 443d f59c 8ebd 95f6 883d 802a bc3d
00000020: 1b54 bf3d 2874 963d 9316 7cbd accf 1aba
00000030: bad9 623c 9db7 893d 1fa0 4bbc 32bb a03d
00000040: 498b 1d3c 572b 543c ddf2 adbc f493 4bbc
00000050: 2307 9bbc 25fd 743c b57e 89bd 4fe8 803d
00000060: f3eb 91bc a172 a63d c578 97bd d1c1 89bd
00000070: 065d b23d 8be5 913d e027 4d3d 7961 63bd
00000080: b470 be3d d6fc 0f3d dba9 92bd 9af7 e03c
00000090: d1d8 69bd e9e6 993c 7cd5 26bd f197 713d
000000a0: 216e 1cbd 5b7c 82bb 7e17 6d3d 89e5 8f3c
000000b0: 1232 efbc 7fea 99bd 131a ae3c 2a94 563d
000000c0: ed18 c73d 766b 81bd 1400 a63c f5b9 c03d
000000d0: 5333 653d 0e63 84bd 4bbf eabc e55f 91bc
000000e0: 76cd 2e3d 4410 f6bc e73c 763d d9f8 613d
000000f0: a9a1 e2bc c3a8 c5bc ed36 5ebd f0fc 733d
00000100: 12c2 a3bc 5da5 8abb d467 083c 849e 8abd
00000110: aa5c a1b9 8160 693d 6cac 863d 6f90 c63d
00000120: a9e2 36bd 6ddb 70bc 7b1f 88bd 43ac a43d
00000130: 28c1 3a3d 98ef a2bc a373 69bc 0c9e a83d
00000140: c80c 513d 0623 be3d 3ede 8fbc 97bc 223c
00000150: d843 65bd 1355 ecbc 4e02 563d 70fe 9bbd
00000160: b697 7bbd 35b6 6abd 8b19 203d 1609 97bd
00000170: 9bdc 51bd 3c0d 763d c61d dc3c a1bd 933d
00000180: bb00 443b cd7e 963c cc75 07bd 4439 7ebd
00000190: 797e 9dbb 9d7f 3c3d d4c3 b73d 3c0b 6dbd
000001a0: 3a6f 1a3b 42bc 4fbd b9a2 c73d cefb 53bb
000001b0: 106c 88bc d6bc 10bd 8e00 b1bc 8c70 4bbd
000001c0: e358 5dbc 9940 d33c ab31 ad3d 327b 183d
000001d0: 533f 4bbd 2f5c 95bb 8371 0fbc 3435 903c
000001e0: 74d0 c43d 01ef 3d3d 4cb5 4abc 3459 543b
000001f0: 8215 1f3d 13e4 0d3d 4b0b 92bd ada0 d93b
00000200: 06a7 273d 09e0 cd3c dab1 e5bc 0526 553c
00000210: 8898 24bb 3f3f 42bd 2236 813d 6286 b43d
00000220: 33d1 88bd 7e5a 90bd f790 ce3c 0265 e4bc
00000230: 21a0 853d 2281 f03a 30c4 423c ff74 333d
00000240: f3e5 b43d b77b 84bd 23a1 c03d e5a1 5a3a
00000250: 7ec6 bdbb e826 923d 5bca 8ebc f88b f63b
00000260: a0ea be3d a9d3 78bb 219b 633d 97dd c33d
00000270: 583b 41bd 881d a73d 8764 2ebc abeb c4bc
00000280: adc6 52bd ad79 323d 6040 15bd 6d0a 7dbd
00000290: 97d3 923d 2fc2 6dbd 6a13 46bd 621b 29bc
000002a0: b2cc 4b3c 7406 bb3c 1cd9 8ebd bd75 98bd
000002b0: 2a23 2bbd 50d1 063d 8960 3a3b e035 923c
000002c0: 9944 903c aa30 bd3d 7b03 653d 7f04 c2bc
000002d0: c18a a7bc d992 3a3d 16bf 503d 2e5b c73c
000002e0: 16f8 143c 5725 4e3d 6cea 7bbc b214 233d
000002f0: 604e 6cbd 0c50 98bd d909 8c3c 4849 19bd
00000300: 6891 c53c fc16 8abd b2f8 16bc 7ca8 d2bc
00000310: 9ce5 243d 78e1 843d c394 d1bc 811e c1bc
00000320: 9f0a 833d 360b 96bd ea2f 40bd 9d85 c73d
00000330: 1e23 85bd 6f49 30bc 98a5 5dbd 5460 b23d
00000340: e311 8fbd ad0f 12bd e8ef 96ba 1321 183c
00000350: defe b13d 7ee3 9dbd 63e4 0d3d 740c 16bb
00000360: 9dae 733d 4237 833d 4d92 373d ccf4 063d
00000370: 5ac7 07bd e1fc dd3c 74a7 4f3d d224 9f3b
00000380: c305 503c a6db 9cbc 3b9c b13b e241 c43d
00000390: ae06 8cbd 4345 5abb 0f25 573d e8a3 3c3d
000003a0: 52aa 74bc 113f 273d d5c8 3ebd 1d71 d73c
000003b0: 910b b03c 1bea 7dbd a929 073d c997 30bc
000003c0: 4644 853d c1ba 0e3d 0e7f 35bd a02e 84bd
000003d0: 7937 783d 60ad a5bc 2663 243d 6074 89bd
000003e0: a040 053d 7c3f d2bc f275 c8bc 298f 773d
000003f0: d491 513d 8753 ac3d cc28 50bd fca3 77bd

value_stream.0.bias f4 [128]
0.07050376 0.072429664 0.04379833 0.032064855 0.068368785 0.005657137 -0.08431768 -0.04437078
0.06911435 0.06967441 -0.022476831 0.093906306 0.05504924 0.075975075 0.018721562 0.053880204
-0.08310862 -0.019477544 0.017316354 -0.054617275 -0.091037065 -0.06621468 -0.049225986 -0.027026886
-0.0612246 0.07090098 -0.07882976 -0.05772433 0.0670762 0.069235206 -0.03669818 -0.07655974
0.018911343 -0.066903256 -0.054500625 -0.054402854 0.07979261 -0.036595 0.09778944 0.026489805
-0.0927996 -0.05929073 -0.010296269 0.064058855 -0.073592335 -1.12486305e-05 -0.06255843 -0.060717393
-0.05268757 -0.048884887 0.027771303 0.050734457 0.016888637 0.057443514 0.09539449 0.000909636
0.054146945 -0.015371363 0.06379243 -0.06056395 0.022204688 0.02157237 -0.05603242 0.035995215
-0.09593372 0.013202021 -0.015854038 0.03100729 -0.06406137 0.042703614 0.07119345 -0.009366682
0.046671752 -0.04827054 -0.032076642 -0.048561454 0.09602884 0.07537909 0.07569467 0.056254003
0.03575731 0.068241805 0.064048246 0.061769165 -0.05270454 0.042006277 0.019762896 -0.07212076
-0.021514297 -0.017738946 -0.012602594 0.02326546 -0.07055738 0.079375476 0.03729767 -0.08255182
0.015284919 -0.034931023 -0.05955412 0.038408022 0.066731915 0.06808245 -0.08974223 0.04968319
0.063569136 -0.05175865 -0.06763672 -0.075939514 0.035064932 0.044077605 -0.07116267 -0.051979147
-0.05782233 -0.024002464 -0.023946526 0.037195295 -0.033566475 0.00067699136 0.060715053 -0.029583763
0.047826692 -0.04885032 -0.061925713 -0.06374804 0.034686632 -0.026263973 0.05615689 -0.04040008
00000000: 4664 903d 0156 943d e165 333d 7056 033d
00000010: ef04 8c3d 815f b93b bfae acbd 23be 35bd
00000020: d38b 8d3d 75b1 8e3d 5521 b8bc f351 c03d
00000030: 507b 613d d298 9b3d f65d 993c 7db1 5c3d
00000040: da34 aabd 5f8f 9fbc 07db 8d3c 5db6 5fbd
00000050: a471 babd 909b 87bd 30a1 49bd 7d67 ddbc
00000060: a5c6 7abd 8834 913d 7f71 a1bd 5970 6cbd
00000070: 3f5f 893d 30cb 8d3d d550 16bd 5acb 9cbd
00000080: f6eb 9a3c 9304 89bd 0c3c 5fbd 87d5 5ebd
00000090: 4f6a a33d a4e4 15bd d445 c83d 2601 d93c
000000a0: b70d bebd d6da 72bd afb1 28bc 4a31 833d
000000b0: 94b7 96bd 80b8 3cb7 a21e 80bd cdb2 78bd
000000c0: ecce 57bd 853b 48bd a580 e33c efce 4f3d
000000d0: 0a5a 8a3c e449 6b3d 305e c33d a374 6e3a
000000e0: 30c9 5d3d 2bd8 7bbc 9ba5 823d e811 78bd
000000f0: 9be6 b53c 8ab8 b03c 4082 65bd b86f 133d
00000100: e678 c4bd 4a4d 583c 54e0 81bc 0003 fe3c
00000110: 9c32 83bd fce9 2e3d dfcd 913d b676 19bc
00000120: e12a 3f3d 54b7 45bd cc62 03bd 60e8 46bd
00000130: c5aa c43d 5a60 9a3d cf05 9b3d 996a 663d
00000140: 4276 123d 5cc2 8b3d ba2b 833d aa01 7d3d
00000150: b7e0 57bd c60e 2c3d cce5 a13c 0db4 93bd
00000160: c03e b0bc 4451 91bc 1c7b 4ebc 3597 be3c
00000170: 6380 90bd 9c8f a23d 71c5 183d ee10 a9bd
00000180: 996d 7a3c d513 0fbd 05ef 73bd bb51 1d3d
00000190: beaa 883d d06e 8b3d c6ca b7bd 9a80 4b3d
000001a0: 8930 823d e100 54bd 1f85 8abd 2d86 9bbd
000001b0: 3fa0 0f3d b88a 343d bcbd 91bd 16e8 54bd
000001c0: 1cd7 6cbd d1a0 c4bc 812b c4bc 185a 183d
000001d0: 007d 09bd 1f78 313a 59b0 783d a659 f2bc
000001e0: ece5 433d 4617 48bd d1a5 7dbd 558e 82bd
000001f0: 9213 0e3d 8b27 d7bc c404 663d 8e7a 25bd

value_stream.2.weight f4 [1, 128]
0.020682283 0.049465682 0.09656125 -0.063014366 -0.031025378 0.04648263 -0.0002627321 0.053715777
-0.05783972 -0.013772057 0.056108028 0.052339185 0.050734807 -0.024261294 -0.06978579 0.010005182
-0.056066595 -0.06380045 0.024161868 0.080977984 -0.04265253 -0.0010234496 -0.017684191 -0.03365692
0.0031131413 -0.05186457 -0.019490203 -0.06314208 0.0048506972 -0.03532068 -0.029580379 -0.07470208
0.058474936 -0.037578374 -0.07489523 0.011466341 0.037787996 -0.021907933 0.031430267 0.07670137
-0.0023559511 0.011318938 0.0798667 0.03025263 0.054441392 0.05575172 -0.012716262 -0.011879851
-0.024554508 0.015488142 0.05287827 0.06821432 -0.07013445 0.07947137 0.038128518 -0.06589439
-0.016943255 0.09009676 -0.022415793 -0.013834691 -0.022557085 0.046748556 0.03530432 -0.06654628
-0.06905804 -0.0054013357 -0.060319796 0.056567296 0.01584918 -0.047970485 -0.033461288 -0.045489103
0.014588067 -0.016104816 0.072163306 -0.05655999 0.09863083 0.034455128 0.006560536 -0.03187358
-0.07237674 0.101212695 0.06475083 0.067781255 0.057815842 0.017884366 0.04650256 -0.014765157
-0.023259927 -0.03399338 0.0017588136 0.042059757 -0.0201604 0.096328 -0.012121776 -0.044766586
0.08340496 -0.01705281 0.07791296 0.021528954 0.017872415 0.008224315 -0.0115501005 -0.020039314
-2.2616267e-05 -0.036846995 0.02893383 -0.010297048 0.09045345 0.00029908726 0.028843924 -0.021225179
0.039662756 -0.05131033 -0.025859885 0.100179374 0.0010663305 0.032456387 -0.029205581 0.02662256
-0.053815365 -0.048320517 -0.059662905 0.0734526 -0.066019855 0.0036240036 0.09948311 0.10002491
00000000: e46d a93c 879c 4a3d e8c1 c53d ad0d 81bd
00000010: ef28 febc 9264 3e3d 4ebf 89b9 1305 5c3d
00000020: 58e9 6cbd 32a4 61bc 88d1 653d 9d61 563d
00000030: 4dcf 4f3d 9fbf c6bc daeb 8ebd c6ec 233c
00000040: 16a6 65bd cfa9 82bd 1cef c53c c9d7 a53d
00000050: 6bb4 2ebd 4525 86ba 70de 90bc d7db 09bd
00000060: d805 4c3b f16f 54bd eba9 9fbc a350 81bd
00000070: 99f2 9e3b 6bac 10bd 8d52 f2bc 67fd 98bd
00000080: 6a83 6f3d c8eb 19bd ac62 99bd 52dd 3b3c
00000090: 96c7 1a3d 4478 b3bc 06bd 003d 9c15 9d3d
000000a0: 4d66 1abb 1173 393c 2791 a33d 5dd4 f73c
000000b0: f0fd 5e3d ea5b 643d de57 50bc b5a3 42bc
000000c0: 8926 c9bc fac1 7d3c e396 583d f3b3 8b3d
000000d0: a7a2 8fbd e3c1 a23d a62c 1c3d a3f3 86bd
000000e0: 95cc 8abc a684 b83d 53a1 b7bc e6aa 62bc
000000f0: a3c9 b8bc 6a7b 3f3d 439b 103d 6b49 88bd
00000100: 4d6e 8dbd b0fd b0bb e411 77bd 1cb3 673d
00000110: 24d6 813c b37c 44bd b40e 09bd c852 3abd
00000120: ca02 6f3c 3fee 83bc 5bca 933d 73ab 67bd
00000130: f6fe c93d d220 0d3d c4f9 d63b df8d 02bd
00000140: 423a 94bd 9a48 cf3d 159c 843d e6d0 8a3d
00000150: 4ed0 6c3d 3c82 923c 7879 3e3d 8fe9 71bc
00000160: 9a8b bebc a43c 0bbd fe87 e63a da46 2c3d
00000170: 6c27 a5bc 9d47 c53d 6a9a 46bc 2b5d 37bd
00000180: 38d0 aa3d 56b2 8bbc d490 9f3d 7d5d b03c
00000190: 2c69 923c 47bf 063c a23c 3dbc 7d29 a4bc
000001a0: 10b8 bdb7 e0ec 16bd a406 ed3c f3b4 28bc
000001b0: a93f b93d d0ce 9c39 184a ec3c 6de0 adbc
000001c0: 6a75 223d c82a 52bd 1cd8 d3bc d82a cd3d
000001d0: 1dc4 8b3a fdf0 043d 8b40 efbc 8e17 da3c
000001e0: 806d 5cbd bceb 45bd 1761 74bd 516e 963d
000001f0: 6b35 87bd b180 6d3b cdbd cb3d dcd9 cc3d

advantage_stream.0.weight f4 [128, 128]
0.047349676 -0.024989877 -0.018395822 -0.07181869 -0.03560052 0.080423094 -0.03962512 0.05045495
0.056795765 -0.08230128 0.06984511 -0.06767172 -0.05520953 0.018586252 -0.04323559 0.0115937
-0.04119051 -0.0116982 0.050070398 -0.01995266 -0.024638835 0.060719434 -0.007945175 0.010638469
-0.0062240995 -0.0014529193 0.085765414 0.032727964 0.02604762 0.08467981 -0.0048770434 -0.052103087
0.006198789 0.019927902 0.044568695 0.07244078 -0.040369432 -0.08671159 -0.054373633 0.06008154
0.080214545 0.031694833 -0.012396775 0.0065448973 0.028803656 -0.064376086 -0.031349834 -0.0030320967
-0.0384359 -0.08100267 0.02433597 0.004231405 0.08080557 -0.08107418 -0.0488165 0.082522094
-0.049892187 0.04124807 0.025349323 -0.06873267 -0.0029977963 -0.0061393753 -0.039845176 0.056620263
0.0074777748 0.0037997935 -0.0001904963 -0.033444222 -0.007085223 -0.008003024 -0.074579 0.06506913
-0.046888538 -7.395781e-05 -0.038763646 -0.06781589 0.0017394263 -0.04784525 -0.08709884 -0.06833491
-0.01858957 0.058037262 -0.027205661 0.00046269456 -0.07779488 0.052090347 -0.006453545 -0.07919246
-0.060592987 -0.02642968 -0.008176122 0.046274137 0.06559239 0.059587825 -0.07985559 0.05053845
-0.053861436 0.06331032 -0.05510929 -0.08216066 0.066611126 0.055742733 0.0036239321 -0.08015213
0.059727754 -0.03456374 -0.07410199 -0.057355296 0.06277167 0.004753902 0.08799263 0.059660368
0.07846052 -0.056454018 -0.082722105 -0.031826753 0.0109434575 0.024732862 -0.014820209 0.07629121
0.057061847 0.002837137 -0.0061707348 -0.06879866 -0.041629802 -0.07786641 -0.07553274 0.062869005
0.0803992 0.054263484 0.059658088 -0.038230777 0.009957486 -0.06692514 -0.07576413 -0.039466195
-0.06419409 0.072190434 0.07126669 -0.001238427 -0.061674513 0.029370686 -0.05962425 -0.06257499
-0.0068404283 -0.074922174 0.047079615 0.0058295373 0.013559263 -0.07262094 -0.0060335062 -0.014569426
-0.034428183 -0.08050692 0.08824553 0.048418574 -0.035829064 0.061466616 -0.073646165 0.068672165
0.01968689 -0.07747221 0.031067975 0.051044084 0.029171167 0.064803585 0.02132555 0.05637995
-0.0034377102 0.009067 -0.020131618 0.06943222 0.03230604 0.0296375 0.0013183203 0.022269817
-0.03767761 -0.016443085 -0.028370898 0.0013637715 0.071428634 -0.003832823 0.0037297858 0.05325118
-0.06047632 -0.041677523 0.03833208 0.032193128 0.06394881 -0.03631179 -0.008006671 0.04016204
-0.07925333 0.052792273 0.07767427 -0.06861099 -0.018609732 -0.07122816 -0.0826634 0.054653868
0.04159695 -0.055812176 -0.02089056 -0.052982386 -0.028380195 0.07322977 -0.04111681 0.047041073
-0.04015866 0.03141238 -0.07991656 0.078337885 -0.035710808 0.0039086984 0.081169605 0.0065926714
0.018201489 0.024990825 -0.004593704 -0.03869066 0.0061799125 0.029954925 0.038960546 -0.013718632
-0.061451428 0.06142205 -0.07621068 -0.083801925 -0.057928238 -0.030116351 -0.008505893 -0.07251001
-0.004165279 0.053240616 -0.006389517 -0.0133242905 -0.016451916 0.06682064 -0.058856595 -0.051036637
0.08437255 0.076382555 0.082751706 -0.03764192 -0.07383403 -0.07414101 0.05532567 -0.03637918
0.022245765 0.04293016 -0.009368193 0.059937328 0.046966065 0.049612973 -0.065575466 -0.006951597
00000000: bcf1 413d 92b7 ccbc d6b2 96bc ad15 93bd
00000010: dad1 11bd ddb4 a43d f34d 22bd daa9 4e3d
00000020: ada2 683d 938d a8bd f40a 8f3d 7997 8abd
00000030: 6323 62bd 3242 983c cd17 31bd 81f3 3d3c
00000040: 61b7 28bd cfa9 3fbc 9e16 4d3d c373 a3bc
00000050: 62d7 c9bc f1b4 783d 7b2c 02bc f94c 2e3c
00000060: 88f3 cbbb e26f beba c7a5 af3d c20d 063d
00000070: d261 d53c 9c6c ad3d 9bcf 9fbb 0c6a 55bd
00000080: 361f cb3b d73f a33c aa8d 363d d55b 943d
00000090: 6b5a 25bd d995 b1bd e3b6 5ebd 1018 763d
000000a0: 8647 a43d 71d2 013d d81b 4bbc 9476 d63b
000000b0: a5f5 eb3c 9cd7 83bd af68 00bd 24b6 46bb
000000c0: f66e 1dbd bae4 a5bd 3a5c c73c 99a7 8a3b
000000d0: 647d a53d 380a a6bd cff3 47bd 5801 a93d
000000e0: c05b 4cbd bcf3 283d 62a9 cf3c b7c3 8cbd
000000f0: ad76 44bb d02c c9bb b234 23bd a6ea 673d
00000100: 1f08 f53b f505 793b f6bf 47b9 cffc 08bd
00000110: 292b e8bb 1e1f 03bc e0bc 98bd f742 853d
00000120: 320e 40bd cc19 9bb8 a1c6 1ebd 0fe3 8abd
00000130: 76fd e33a 62f9 43bd e060 b2bd 2cf3 8bbd
00000140: 2749 98bc 7bb8 6d3d 68de debc d095 f239
00000150: ec52 9fbd b05c 553d 4278 d3bb a82f a2bd
00000160: 5a30 78bd 0e83 d8bc 24f5 05bc f389 3d3d
00000170: 4e55 863d 5d12 743d 548b a3bd 6801 4f3d
00000180: cf9d 5cbd d7a8 813d 47ba 61bd d943 a8bd
00000190: 6a6b 883d 7e52 643d 7e7f 6d3b cd26 a4bd
000001a0: 17a5 743d b592 0dbd c9c2 97bd 63ed 6abd
000001b0: 6f8e 803d 9fc6 9b3b 7b35 b43d 6e5e 743d
000001c0: e9af a03d 543c 67bd 356a a9bd c55c 02bd
000001d0: 304c 333c 929c ca3c 76d0 72bc 913e 9c3d
000001e0: afb9 693d 43ef 393b e033 cabb 50e6 8cbd
000001f0: 0384 2abd 6d78 9fbd e9b0 9abd 77c1 803d
00000200: 56a8 a43d 6343 5e3d 0a5c 743d e097 1cbd
00000210: b924 233c 0c10 89bd 392a 9bbd 4ea7 21bd
00000220: 3178 83bd 94d8 933d 45f4 913d b752 a2ba
00000230: 6a9e 7cbd cb9a f03c 8f38 74bd 5127 80bd
00000240: ac25 e0bb cc70 99bd 8ed6 403d b405 bf3b
00000250: ac27 5e3c 4aba 94bd b8b4 c5bb 9ab4 6ebc
00000260: 9104 0dbd d0e0 a4bd 13ba b43d 8e52 463d
00000270: 7fc1 12bd 6bc4 7b3d cdd3 96bd fea3 8c3d
00000280: 6746 a13c c0a9 9ebd 4482 fe3c 9a13 513d
00000290: 5ff8 ee3c beb7 843d ebb2 ae3c aaee 663d
000002a0: 354b 61bb c18d 143c 10eb a4bc 7b32 8e3d
000002b0: 5753 043d 58ca f23c 7dcb ac3a 316f b63c
000002c0: d653 1abd a6b3 86bc 166a e8bc 94c0 b23a
000002d0: 2d49 923d 1930 7bbb 6c6f 743b e91d 5a3d
000002e0: 05b6 77bd 0db6 2abd 1902 1d3d f1dc 033d
000002f0: 98f7 823d acbb 14bd 6a2e 03bc f480 243d
00000300: 924f a2bd b63c 583d b013 9f3d eb83 8cbd
00000310: 7073 98bc 12e0 91bd 6e4b a9bd bcdc 5f3d
00000320: 9061 2a3d 4f9b 64bd ae22 abbc 0f04 59bd
00000330: 957d e8bc 7df9 953d 1a6a 28bd 24ae 403d
00000340: 687d 24bd 45aa 003d 4bab a3bd 9d6f a03d
00000350: 7f45 12bd 8a14 803b 403c a63d 5607 d83b
00000360: 4a1b 953c 8fb9 cc3c c886 96bb 197a 1ebd
00000370: dd80 ca3b 0864 f53c 1895 1f3d 1dc4 60bc
00000380: 7eb4 7bbd b095 7b3d 5814 9cbd 58a0 abbd
00000390: 2946 6dbd 91b6 f6bc 4d5c 0bbc 2180 94bd
000003a0: e57c 88bb d512 5a3d 275f d1bb 204e 5abc
000003b0: 2bc6 86bc 42d9 883d 9d13 71bd cb0b 51bd
000003c0: 84cb ac3d 756e 9c3d ba79 a93d 6a2e 1abd
000003d0: 4c36 97bd 3ed7 97bd 2b9d 623d 5602 15bd
000003e0: c03c b63c 89d7 2f3d 0d7d 19bc d880 753d
000003f0: 7d5f 403d f936 4b3d 6e4c 86bd 39ca e3bb

advantage_stream.0.bias f4 [128]
0.07981039 -0.08306711 -0.019548401 0.069463745 -0.07642011 0.023044083 0.057102676 0.036078732
-0.052603073 0.010371085 -0.03905063 0.0077307564 -0.082536735 -0.032613203 -0.07817586 0.015261725
-0.05029239 -0.07396293 0.011022299 0.07440831 -0.016849617 -0.036702096 0.04036853 0.06355409
-0.07173085 -0.03408872 0.02054011 -0.0652743 -0.01644319 -0.058118984 0.08898253 0.023334851
-0.088006854 -0.05682149 0.06174677 -0.050721027 -0.042560354 -0.084266864 0.011318512 -0.026212474
-0.059460357 -0.014337139 0.019481255 -0.00978195 0.06585601 -0.08678803 0.0009144853 0.019476345
-0.08008925 0.0756207 0.0009987807 -0.06471627 -0.082718514 0.007391115 -0.025774404 -0.06508874
-0.08374776 -0.03196052 0.056888346 0.005598121 0.08520098 -0.036463153 0.021175409 -0.034156978
0.082801044 0.044088315 0.016024143 -0.025351735 0.0866257 0.02200576 0.07467577 -0.05928938
0.0131132705 -0.02675021 -0.00045838582 -0.015217994 -0.06726958 0.001772925 -0.040170345 0.011039133
0.01886422 0.07756757 -0.026281636 0.008985397 -0.08631154 -0.0095893005 0.08196261 -0.014867084
-0.002134959 -0.08455156 -0.06214118 -0.014750326 0.07584675 -0.06698785 -0.07428288 0.0007314218
-0.08319456 -0.006793995 -0.021292059 0.04688778 -0.06050443 0.008527532 0.029096337 0.01582097
-0.023482526 -0.0704207 -0.07210284 -0.0001238463 0.07138563 0.043550324 -0.01877641 -0.003079323
-0.020931264 0.013217005 0.06964628 -0.06349389 0.07502431 -0.023187594 0.024558706 -0.011401488
-0.028402533 0.031926855 -0.02598232 0.0821413 0.01479483 -0.055851687 -0.081613615 -0.08577077
00000000: a173 a33d 171f aabd f823 a0bc 0243 8e3d
00000010: 2682 9cbd f2c6 bc3c 7fe4 693d 4bc7 133d
00000020: 5276 57bd 7ceb 293c 8ef3 1fbd 4952 fd3b
00000030: 0509 a9bd 6c95 05bd aa1a a0bd 500c 7a3c
00000040: 65ff 4dbd e079 97bd df96 343c 6263 983d
00000050: 3508 8abc f054 16bd 7959 253d a628 823d
00000060: a0e7 92bd 9da0 0bbd bc43 a83c 88ae 85bd
00000070: deb3 86bc 2c0e 6ebd 793c b63d bb28 bf3c
00000080: f03c b4bd a7bd 68bd 2eea 7c3d dac0 4fbd
00000090: c453 2ebd 1b94 acbd 4871 393c 8bbb d6bc
000000a0: b48c 73bd 52e6 6abc 2797 9f3c 7944 20bc
000000b0: 84df 863d ecbd b1bd 12ba 6f3a db8c 9f3c
000000c0: d505 a4bd 07df 9a3d 85e9 823a f789 84bd
000000d0: 5368 a9bd 2b31 f23b d824 d3bc 3f4d 85bd
000000e0: f283 abbd 09e9 02bd c103 693d 7170 b73b
000000f0: da7d ae3d 635a 15bd 0d78 ad3c 30e8 0bbd
00000100: 9893 a93d f395 343d 1045 833c 71ae cfbc
00000110: d168 b13d 6c45 b43c 9cef 983d 6cd9 72bd
00000120: 0bd9 563c 4223 dbbc 8153 f0b9 e554 79bc
00000130: a2c4 89bd 7e61 e83a a989 24bd 7bdd 343c
00000140: 2389 9a3c bfdb 9e3d 964c d7bc 7d37 133c
00000150: 1bc4 b0bd 711c 1dbc 03dc a73d 1295 73bc
00000160: abea 0bbb 5e29 adbd c087 7ebd 5aab 71bc
00000170: 8a55 9b3d ed30 89bd 9f21 98bd e3bc 3f3a
00000180: e961 aabd 29a0 debb af6c aebc 670d 403d
00000190: 7ed3 77bd 10b7 0b3c 715b ee3c fb9a 813c
000001a0: 6d5e c0bc ba38 90bd a7aa 93bd bddc 01b9
000001b0: a132 923d d361 323d fcd0 99bc 78ce 49bb
000001c0: 0b78 abbc 238c 583c b5a2 8e3d 1609 82bd
000001d0: 58a6 993d e9f3 bdbc 572f c93c 4fcd 3abc
000001e0: 6eac e8bc bcc5 023d e0d8 d4bc b339 a83d
000001f0: 0466 723c bdc4 64bd 0a25 a7bd 96a8 afbd

advantage_stream.2.weight f4 [4, 128]
0.021704659 -0.007984035 -0.01456012 -0.07247827 0.010251319 0.08322982 -0.017227415 -0.032691583
-0.016276846 0.032799125 -0.06084772 0.007064684 0.07557227 0.078623235 -0.03374529 0.010932113
0.069097534 -0.045724597 0.07215095 -0.0585696 -0.06361977 -0.06145061 0.005995081 0.008803377
0.031596955 0.03843132 -0.016832145 -0.0333782 -0.00017797327 -0.045166377 0.021764534 0.027282804
-0.012957688 0.0010088106 0.034581415 0.033704985 -0.0039605224 -0.07043083 -0.02358824 -0.023393616
-0.07600955 -0.051904898 0.026130041 -0.07692087 -0.025084065 -0.08143763 0.0010885935 -0.055230953
-0.073019505 0.04457909 -0.073873185 -0.0048686652 -0.027671594 0.028560292 -0.07618436 0.027909556
0.05456893 0.03319685 -0.072285414 0.0487258 -0.071638025 -0.047417037 0.033653364 -0.057284787
-0.00846445 0.062178805 0.06609141 -0.017130163 -0.0767481 0.04117615 0.0006854765 0.011892345
0.011253748 0.05432103 -0.07981516 0.0034475897 0.025350109 -0.06372305 0.052062932 -0.08555173
-0.023804363 0.06604073 0.059734974 -0.071862906 0.018675346 0.05744362 0.083662674 0.028155724
0.04111595 0.015956925 0.0018076279 -0.04894026 0.026344977 0.031118413 -0.065720685 0.07379811
0.02326645 0.048515353 0.028561383 -0.053061515 0.054415777 -0.07887365 0.047920678 -0.05701909
0.07941528 0.054576818 -0.084153205 -0.08900113 0.06726396 -0.046237994 -0.049462914 0.014695726
0.012424605 0.02440736 0.037475795 -0.03421169 0.00464607 0.026073052 0.06588305 -0.006977856
-0.031207373 -0.06846104 -0.08390866 0.041334573 -0.06777846 0.055576045 -0.08861928 -0.0049541034
0.04151304 0.034217793 -0.057799444 -0.025362423 0.0138430325 0.0071311346 -0.061082326 -0.08807481
-0.06946844 -0.05037932 -0.058128938 0.033162095 0.0643911 0.03655633 -0.007726399 -0.027809577
-0.07086725 0.00027121394 -0.06495187 0.014998946 -0.06432543 0.021098835 -0.04395048 -0.000703966
-0.0026510106 -0.020090315 -0.024491208 -0.07492757 -0.05808242 -0.017369978 0.03394249 -0.0021861296
-0.03341785 -0.018953674 -0.024363186 -0.034271356 0.027979843 -0.07681264 0.05351135 -0.0598778
0.011391068 -0.0778912 0.028582674 0.049451146 -0.079730675 -0.06922827 0.052190844 0.078373045
0.057518296 -0.03403366 0.05485662 0.06049495 0.013043772 0.058737256 -0.07028014 -0.07232373
-0.015101431 0.05367512 0.078812204 -0.02271614 0.0483733 0.007955981 -0.03704354 -0.069513075
0.029469492 -0.00051350857 -0.077999145 -0.070339285 0.029908095 -0.031077338 -0.08053182 0.005413965
0.0006009252 -0.007972236 0.066396736 0.04437713 -0.07122361 -0.06467247 0.08915464 0.057704963
-0.0061142617 -0.048417296 0.06861613 0.03132726 -0.079061486 0.0022274696 0.048105754 0.01074851
0.053122777 0.08407786 -0.008708118 0.020204559 0.03813495 0.027658338 0.008743589 -0.09139945
-0.08533045 -0.025836002 -0.010876853 0.032463618 -0.07446201 0.008451705 -0.0737298 0.0065819635
-0.08316303 0.040100195 -0.083976164 0.046384696 -0.046416033 -0.06762054 -0.043068025 -0.041625053
-0.06840922 0.0018618276 0.027095659 0.015587052 0.026422953 0.014665085 -0.06393861 -0.015090758
0.06687746 0.024627378 0.08419688 -0.053582557 -0.046429142 0.020710347 0.032001693 0.066604644
00000000: f8cd b13c 78cf 02bc 928d 6ebc 7d6f 94bd
00000010: 26f5 273c 6574 aa3d 8220 8dbc 9ce7 05bd
00000020: 0557 85bc 6058 063d 753b 79bd dd7e e73b
00000030: a2c5 9a3d 3805 a13d 8038 0abd 9b1c 333c
00000040: 0283 8d3d b749 3bbd e1c3 933d ade6 6fbd
00000050: 154b 82bd a3b3 7bbd 6272 c43b 0a3c 103c
00000060: cf6b 013d 296a 1d3d 91e3 89bc 94b7 08bd
00000070: 569e 3ab9 6100 39bd 894b b23c 3080 df3c
00000080: 7c4c 54bc 113a 843a 3ea5 0d3d 3d0e 0a3d
00000090: 45c7 81bb 0a3e 90bd 203c c1bc f8a3 bfbc
000000a0: e5aa 9bbd 3b9a 54bd ab0e d63c b088 9dbd
000000b0: 197d cdbc c6c8 a6bd 23af 8e3a da39 62bd
000000c0: 408b 95bd 9098 363d d34a 97bd 5389 9fbb
000000d0: 8aaf e2bc 46f7 e93c 8c06 9cbd 95a2 e43c
000000e0: ac83 5f3d 6cf9 073d 600a 94bd b494 473d
000000f0: f5b6 92bd 5e38 42bd 1cd8 093d 74a3 6abd
00000100: 7aae 0abc 34af 7e3d ef5a 873d 8e54 8cbc
00000110: 1c2e 9dbd 53a8 283d 8db1 333a 1cd8 423c
00000120: a461 383c ba7f 5e3d 2176 a3bd f5f0 613b
00000130: 08ab cf3c 3b81 82bd f13f 553d bf35 afbd
00000140: 5e01 c3bc 5d40 873d a9ac 743d dc2c 93bd
00000150: 0afd 983c 004a 6b3d 5657 ab3d d5a6 e63c
00000160: 3369 283d 19b8 823c eded ec3a 9575 48bd
00000170: 6cd1 d73c 0bec fe3c 9198 86bd 7723 973d
00000180: 4899 be3c 09b8 463d 90f9 e93c 0857 59bd
00000190: 14e3 5e3d 8288 a1bd 7948 443d d98c 69bd
000001a0: 7aa4 a23d f18b 5f3d 8458 acbd 3946 b6bd
000001b0: b0c1 893d 0d64 3dbd a099 4abd 58c6 703c
000001c0: 9290 4b3c f2f1 c73c 3880 193d 8f21 0cbd
000001d0: 0f3e 983b 2797 d53c b1ed 863d 80a6 e4bb
000001e0: 9ba6 ffbc 4d35 8cbd 4ed8 abbd 714e 293d
000001f0: 6fcf 8abd b5a3 633d 067e b5bd 0856 a2bb
00000200: 9409 2a3d f527 0c3d 1cbf 6cbd dbc4 cfbc
00000210: e3cd 623c 4bac e93b 7631 7abd 9160 b4bd
00000220: 7845 8ebd 8c5a 4ebd 9c18 6ebd fad4 073d
00000230: 7bdf 833d 17bc 153d bc2d fdbb e9d0 e3bc
00000240: d922 91bd b831 8e39 7c05 85bd 24be 753c
00000250: 0dbd 83bd 77d7 ac3c 6b05 34bd 5c8a 38ba
00000260: 94bc 2dbb 7294 a4bc c9a1 c8bc a073 99bd
00000270: d5e7 6dbd 7c4b 8ebc 4807 0b3d 2b45 0fbb
00000280: 28e1 08bd bc44 9bbc 4e95 c7bc 1f60 0cbd
00000290: fc35 e53c f24f 9dbd b82e 5b3d 6d42 75bd
000002a0: 9aa1 3a3c 6c85 9fbd 3626 ea3c 498d 4a3d
000002b0: d649 a3bd 8dc7 8dbd 11c6 553d 0c82 a03d
000002c0: 4e98 6b3d e166 0bbd 56b1 603d 8dc9 773d
000002d0: 8cb5 553c 7a96 703d 09ef 8fbd 771e 94bd
000002e0: fe6b 77bc 71da 5b3d 4b68 a13d 3317 babc
000002f0: 1523 463d ce59 023c f8ba 17bd df5c 8ebd
00000300: 016a f13c fa9c 06ba 04be 9fbd 0b0e 90bd
00000310: d201 f53c e795 febc deed a4bd a167 b13b
00000320: 6887 1d3a fb9d 02bc 03fb 873d cbc4 353d
00000330: afdd 91bd 0073 84bd b596 b63d 0a5c 6c3d
00000340: 255a c8bb 3751 46bd 9d86 8c3d 0351 003d
00000350: fdea a1bd bdfa 113b 8a0a 453d 851a 303c
00000360: 4597 593d 0331 ac3d 7fac 0ebc 0884 a53c
00000370: 6533 1c3d bd93 e23c 4541 0f3c a32f bbbd
00000380: bbc1 aebd 06a6 d3bc d434 32bc 92f8 043d
00000390: 8a7f 98bd 0579 0a3c a6ff 96bd 83ad d73b
000003a0: 6151 aabd 1a40 243d b2fb abbd e1fd 3d3d
000003b0: bd1e 3ebd a37c 8abd 1968 30bd 087f 2abd
000003c0: 221a 8cbd 9108 f43a b7f7 dd3c d660 7f3c
000003d0: f374 d83c d345 703c 3ff2 82bd 3a3f 77bc
000003e0: 0df7 883d 5bbf c93c 6a6f ac3d 6279 5bbd
000003f0: 7c2c 3ebd bfa8 a93c 3514 033d 0468 883d

advantage_stream.2.bias f4 [4]
0.0070747 0.08001774 -0.018276034 -0.064301334
00000000: e3d2 e73b 57e0 a33d 9fb7 95bc 6bb0 83bd
