2048_DQN.pth (torch, 135768 bytes, 4 tensors)

fc.0.weight f4 [128, 256]
0.122429885 0.12285293 0.06785917 0.0637844 2.7463437e-05 0.041234143 -0.046661653 -0.003982596
0.021725766 -0.021067254 0.035463504 0.007882901 0.03435631 0.04010032 -0.027590431 0.022713885
0.11626234 0.17964852 0.10038394 0.13257349 0.0813524 0.042791404 -0.016883269 0.020020677
0.058313884 0.029993653 -0.006035261 -0.0030336455 0.035524294 -0.043437973 0.020778053 -0.020709619
0.20094202 0.12619284 0.10409553 0.12348529 0.113609836 0.044750117 0.08442371 -0.043319043
-0.011148639 -0.06232349 0.005177498 0.017736264 -0.02530042 0.025957704 -0.010131814 -0.054311737
0.19862232 0.18940558 0.16223486 0.13355325 0.07200559 0.053595316 0.062798165 -0.012592666
-0.048744097 -0.03073702 -0.008343168 -0.0068679154 -0.0004235953 0.03581699 0.020049438 -0.046211988
0.15229337 0.1206981 0.17870592 0.06801064 0.054608207 0.040414922 0.025268778 0.004958763
-0.06115257 0.055686705 0.03326396 -0.029574163 -0.038995795 0.0021743476 0.035610862 -0.044852585
0.12966062 0.18468645 0.09260047 0.1286124 0.03388666 0.14947793 0.094475135 -0.033425894
-0.03450711 0.022155136 0.003425315 0.01656308 -0.051129945 -0.03346502 0.028358594 -0.04765638
0.12096025 0.18921205 0.17596869 0.10990747 0.11444163 0.1372921 0.061669018 0.022594
0.047728576 0.060926303 0.028950088 -0.027320936 -0.054365247 -0.061688498 0.00043236464 -0.023980029
0.14749163 0.13014047 0.18923943 0.17954053 0.041612767 0.011778864 0.06588543 0.015600606
-0.05946938 0.020372972 0.05983465 -0.049542055 -0.013498358 0.013554081 -0.050894327 -0.05351004
0.19745207 0.12133993 0.14524262 0.11536945 0.08698443 0.025310304 0.018227894 0.04122819
0.028666444 -0.018070333 0.007688679 0.047851138 -0.054762334 0.04014676 -0.018783756 -0.012714736
0.1401288 0.08510047 0.134835 0.18696968 0.15713973 0.07479023 0.034021024 0.07828115
0.023612984 0.042367086 -0.04024694 0.018018946 0.011172384 0.010894693 0.058034487 0.03459821
0.17692783 0.14837398 0.14610016 0.11010193 0.071948424 0.029458018 0.031880133 -0.020052206
0.029422224 0.019347817 -0.017821252 -0.047609955 0.061529048 0.046965778 0.029723868 0.06186468
0.10655291 0.12858237 0.10245712 0.088482454 0.045776088 0.107654154 0.034473676 0.04258322
-0.034323193 -0.0064388663 0.008220449 -0.017106585 0.05899375 -0.028554648 0.01940602 -0.04240679
0.17236307 0.1338664 0.14575794 0.13735357 0.041769244 0.018668035 -0.0058950307 0.049001828
-0.014768034 0.0451198 -0.027808271 0.05151046 0.06224978 0.042842925 0.03584657 0.023262583
0.14299777 0.14495862 0.1574972 0.07526035 0.08004179 0.07401959 -0.025280217 -0.047064085
-0.03739772 0.007624097 -0.0115848705 0.013468251 -0.01486259 -0.04091487 0.008298121 0.042330436
0.101296246 0.18703884 0.17477651 0.17997535 0.013224297 0.010277704 0.06102764 -0.04733528
-0.051218525 0.03178022 0.030339368 -0.0569513 0.044973657 -0.012152895 0.04640121 -0.036677897
0.120045304 0.100707665 0.13754216 0.02536053 0.032581095 0.00059263146 -0.0030277993 -8.888543e-06
0.0035078004 -0.061136387 0.032148518 -0.038306072 0.038089134 0.05727019 -0.0208432 0.007014625
00000000: 85bc fa3d 519a fb3d c0f9 8a3d 65a1 823d
00000010: 4861 e637 22e5 283d 4a20 3fbd 7080 82bb
00000020: 3cfa b13c 3c95 acbc 2e42 113d 4827 013c
00000030: 34b9 0c3d 3c40 243d 5405 e2bc 7812 ba3c
00000040: f31a ee3d c8f5 373e 1896 cd3d 58c1 073e
00000050: 169c a63d 0a46 2f3d c84e 8abc 6702 a43c
00000060: 8ada 6e3d 40b5 f53c 70c3 c5bb 20d0 46bb
00000070: ec81 113d 04ec 31bd bc36 aa3c 38a7 a9bc
00000080: bfc3 4d3e b238 013e 0a30 d53d dbe5 fc3d
00000090: 46ac e83d e64b 373d 57e6 ac3d 4f6f 31bd
000000a0: c8a8 36bc ea46 7fbd 00a8 a93b a44b 913c
000000b0: d442 cfbc 40a5 d43c e8ff 25bc fc75 5ebd
000000c0: a663 4b3e 89f3 413e e520 263e 2fc2 083e
000000d0: ab77 933d c386 5b3d 539c 803d 7851 4ebc
000000e0: e4a7 47bd 34cc fbbc c8b1 08bc 400c e1bb
000000f0: 0016 deb9 d6b4 123d b83e a43c c848 3dbd
00000100: cbf2 1b3e 9130 f73d affe 363e 2a49 8b3d
00000110: dbac 5f3d 1e8a 253d 7800 cf3c 1e7d a23b
00000120: 1e7b 7abd be17 643d ca3f 083d 8445 f2bc
00000130: 0eba 1fbd 807f 0e3b b2dc 113d 58b7 37bd
00000140: c1c5 043e 721e 3d3e 51a5 bd3d f8b2 033e
00000150: bdcc 0a3d be10 193e 2e7c c13d 97e9 08bd
00000160: 5457 0dbd b07e b53c 407b 603b 4caf 873c
00000170: a26d 51bd 9e12 09bd 4850 e83c 5633 43bd
00000180: 02ba f73d cec0 413e 2331 343e 2b17 e13d
00000190: 6060 ea3d 4d96 0c3e a798 7c3d 0d17 b93c
000001a0: 0a7f 433d dc8d 793d bc28 ed3c 28d0 dfbc
000001b0: 18ae 5ebd 14ad 7cbd 00af e239 c471 c4bc
000001c0: 0c08 173e 8b43 053e fbc7 413e 79d9 373e
000001d0: 2672 2a3d 23fc 403c f1ee 863d af99 7f3c
000001e0: 2a96 73bd 38e5 a63c 2e15 753d 9cec 4abd
000001f0: 3828 5dbc f011 5e3c 9276 50bd 582d 5bbd
00000200: e030 4a3e 1281 f83d 7bba 143e d146 ec3d
00000210: e524 b23d 8e57 cf3c aa52 953c e4de 283d
00000220: e4d5 ea3c 3c08 94bc 50f1 fb3b 8eff 433d
00000230: 784e 60bd ee70 243d 64e0 99bc 7851 50bc
00000240: ed7d 0f3e 2849 ae3d 3012 0a3e fb74 3f3e
00000250: 3de9 203e 9f2b 993d a159 0b3d de51 a03d
00000260: 0470 c13c 1c89 2d3d fad9 24bd 789c 933c
00000270: 600c 373c a87f 323c 92b5 6d3d dab6 0d3d
00000280: 922c 353e 59ef 173e 489b 153e 1f7d e13d
00000290: b259 933d f151 f13c be94 023d 8644 a4bc
000002a0: e006 f13c 507f 9e3c e0fd 91bc a802 43bd
000002b0: e205 7c3d 305f 403d 787f f33c d265 7d3d
000002c0: 6938 da3d 19ab 033e 0ad5 d13d 4a36 b53d
000002d0: b57f 3b3d c879 dc3d 4534 0d3d be6b 2e3d
000002e0: 7a96 0cbd 20fd d2bb 10af 063c 1c23 8cbc
000002f0: 6ea3 713d 70eb e9bc 60f9 9e3c beb2 2dbd
00000300: f27f 303e 4614 093e 9241 153e 6aa6 0c3e
00000310: 3a16 2b3d b5ed 983c 1a2b c1bb 24b6 483d
00000320: a0f5 71bc 8acf 383d 2cce e3bc a2fc 523d
00000330: a0f9 7e3d 107c 2f3d dad3 123d 2c91 be3c
00000340: 026e 123e 0870 143e f246 213e 1922 9a3d
00000350: f3ec a33d 9597 973d 7518 cfbc 45c6 40bd
00000360: 5a2e 19bd 90d3 f93b 78ce 3dbc f0a9 5c3c
00000370: 3882 73bc 5a96 27bd d8f4 073c ae62 2d3d
00000380: 6874 cf3d 1c87 3f3e 9df8 323e 754b 383e
00000390: b9aa 583c d163 283c 1ef8 793d a3e2 41bd
000003a0: 84ca 51bd fa2b 023d 448a f83c c445 69bd
000003b0: 4c36 383d f01c 47bc 320f 3e3d 903b 16bd
000003c0: 50da f53d d23f ce3d dad7 0c3e e3c0 cf3c
000003d0: c173 053d d35a 1b3a 0b6e 46bb 0020 15b7
000003e0: 20e3 653b 266a 7abd 2aae 033d d4e6 1cbd
000003f0: 5a03 1c3d 2694 6a3d 5cbf aabc f0da e53b

fc.0.bias f4 [128]
0.19346404 0.12733401 -0.08402237 0.1654837 0.22601533 -0.05099503 -0.004574015 0.15389088
0.15162845 0.1646094 -0.07816485 0.22747035 0.003858276 0.2120776 -0.07918727 0.14875081
0.26709327 0.19256338 0.19937488 0.24675743 0.22664386 0.28097862 -0.019942496 0.16045962
0.18947968 0.14495246 0.017072285 -0.07682082 0.18039772 -0.08235271 0.18266654 0.18338546
0.21395396 0.19722712 -0.050048042 0.155655 0.24425349 0.0058725723 0.23756382 0.26262274
0.08122228 0.18518203 0.22604834 0.21373293 0.25820324 0.12622894 0.23592703 0.13582696
0.0924344 0.20981973 0.21431702 0.20777847 0.07467678 -0.024514223 0.21502496 0.21021366
0.20647377 0.22528939 0.2541284 0.1877572 -0.02338073 0.24061978 0.13457806 0.060623683
0.25530258 0.26471624 0.17493995 0.18551517 -0.064907104 0.211498 -0.061755992 -0.042595305
0.22779301 0.15195099 0.20215322 0.24505958 0.19984046 0.18611117 -0.06187946 0.26143625
-0.036399506 0.16567044 0.1915201 0.11189294 -0.05067706 0.2610721 0.17521605 0.28842023
0.14296089 0.1482104 0.18142524 -0.05897429 0.20432663 0.2541321 0.16500606 0.010238167
0.20987386 0.2493018 0.16555676 0.08567461 0.17148316 0.11141733 0.1679523 0.23261678
0.12762953 0.17125793 -0.041963905 0.24900497 0.16021802 0.19500707 0.12876771 0.16712357
0.22290084 -0.057063676 0.21701203 0.13751432 0.20716174 0.2617776 -0.078020304 0.11347627
0.25530747 0.23638624 -0.05376681 0.27022687 0.18317245 0.21444723 0.17025818 0.2656428
00000000: 701b 463e d963 023e ec13 acbd 8f74 293e
00000010: 9070 673e 2ae0 50bd 9ee1 95bb 9295 1d3e
00000020: 7d44 1b3e 5e8f 283e e514 a0bd fded 683e
00000030: 21db 7c3b df2a 593e ef2c a2bd 2252 183e
00000040: 73c0 883e 562f 453e ee28 4c3e fbad 7c3e
00000050: 5415 683e 6edc 8f3e 725e a3bc 874f 243e
00000060: f606 423e 6b6e 143e 2ddb 8b3c 3c54 9dbd
00000070: 2eba 383e 8aa8 a8bd f00c 3b3e 66c9 3b3e
00000080: bf16 5b3e e8f5 493e 2dff 4cbd 0664 1f3e
00000090: 961d 7a3e b56e c03b ee43 733e 7d76 863e
000000a0: de57 a63d 5ca0 3d3e 3779 673e cedc 5a3e
000000b0: 3733 843e 2942 013e db96 713e 3916 0b3e
000000c0: 3f4e bd3d fcda 563e ec75 5b3e e1c3 543e
000000d0: 24f0 983d 0dd2 c8bc 812f 5c3e 4042 573e
000000e0: dc6d 533e 43b2 663e 1e1d 823e 6c43 403e
000000f0: f288 bfbc 0865 763e d5ce 093e 8a50 783d
00000100: 05b7 823e e388 873e 7523 333e b0f7 3d3e
00000110: 04ee 84bd ef92 583e daf3 7cbd 6a78 2ebd
00000120: 9242 693e 0a99 1b3e 4101 4f3e e6f0 7a3e
00000130: faa2 4c3e ed93 3e3e 5175 7dbd f9da 853e
00000140: a617 15bd 83a5 293e d81d 443e 2028 e53d
00000150: c092 4fbd 3eab 853e d66b 333e d1ab 933e
00000160: 5764 123e 78c4 173e 8ac7 393e 068f 71bd
00000170: 003b 513e 9a1d 823e 59f7 283e fcbd 273c
00000180: 2ce9 563e f948 7f3e b687 293e 2c76 af3d
00000190: 4899 2f3e c52e e43d b0fb 2b3e 1833 6e3e
000001a0: 51b1 023e 3d5e 2f3e 58e2 2bbd 29fb 7e3e
000001b0: 3110 243e efaf 473e afdb 033e 7122 2b3e
000001c0: 1e40 643e 9abb 69bd 6738 5e3e 8ed0 0c3e
000001d0: 3522 543e b707 863e 1cc9 9fbd 3f66 e83d
000001e0: a9b7 823e 3c0f 723e 963a 5cbd 2d5b 8a3e
000001f0: 8f91 3b3e 0e98 5b3e 2958 2e3e 5502 883e

fc.3.weight f4 [4, 128]
0.2641179 0.16523306 -0.03073311 0.2505894 0.2561529 -0.0075269393 -0.03183276 0.119271584
0.13498405 0.24241956 -0.03042197 0.21176384 -0.052690323 0.21506186 -0.034298234 0.23705868
0.22649565 0.26908147 0.17141387 0.1495423 0.17537156 0.21728969 -0.016359337 0.2435878
0.13523655 0.24533029 -0.042421483 -0.011698569 0.20371594 -0.04778451 0.20857199 0.14415155
0.17480113 0.23080252 -0.0037462886 0.11651331 0.16562742 -0.044888612 0.2022768 0.2344036
0.1969016 0.21675299 0.26751238 0.16200294 0.1690678 0.24937947 0.24393615 0.086266585
0.18739925 0.26846197 0.2073554 0.19438736 0.06143487 0.11346746 0.24405123 0.26830915
0.25972232 0.1050953 0.2556539 0.24542962 -0.045567613 0.30092782 0.19036256 0.10618723
0.26571116 0.12775852 0.17885107 0.2431511 0.067331694 0.1220172 -0.02488149 -0.0640391
0.20795487 0.1364274 0.21558456 0.2307573 0.20639883 0.22343384 -0.04789423 0.17352635
0.00953088 0.11787126 0.13797311 0.16218385 -0.0037333074 0.22219075 0.16676691 0.19220918
0.21855307 0.1403831 0.12292214 -0.03047052 0.1345296 0.19423534 0.23169072 -0.047377482
0.097944014 0.24781135 0.12528667 0.09946526 0.17817023 0.22052366 0.2155955 0.24647313
0.08739362 0.22049884 -0.0076081497 0.17746355 0.19139318 0.1933673 0.27552626 0.2154406
0.22141159 -0.060946748 0.25139067 0.17829114 0.22004202 0.17384312 -0.016529156 0.21367894
0.17296472 0.257728 0.014745049 0.15509742 0.12133923 0.23837252 0.110209405 0.28555787
0.21964332 0.12501249 0.049235404 0.24148227 0.22042727 -0.050266486 -0.005968712 0.17632458
0.21529348 0.17662455 0.036637496 0.22450858 -0.028089255 0.17684948 -0.030944947 0.22501822
0.17905977 0.22278 0.1520129 0.2245365 0.19307257 0.22658205 0.0040288107 0.14616178
0.19385505 0.1793443 -0.038956687 0.06019935 0.2583647 0.035042077 0.21441251 0.19559881
0.22855133 0.18666328 -0.027866432 0.20554198 0.18381333 0.029887157 0.19783334 0.123195544
0.13337685 0.081175864 0.17699529 0.14421676 0.12474619 0.11138716 0.28827095 0.111449756
0.026484987 0.118690856 0.24834529 0.17316134 0.25039855 -0.035868764 0.21688148 0.17486215
0.24352811 0.28463882 0.20003125 0.080953896 0.03431102 0.15211876 0.11728813 0.096804366
0.12519182 0.2453811 0.26489186 0.23377709 -0.06301924 0.24535906 -0.07425584 -0.021223618
0.1976168 0.2648141 0.25561145 0.18486927 0.21541302 0.2429593 -0.017389052 0.23781225
-0.008985001 0.21705733 0.23673837 0.09309528 -0.042096116 0.2062668 0.11126051 0.21394227
0.24503914 0.21114199 0.16577114 -0.016359298 0.26832432 0.27039343 0.25036588 -0.050758265
0.13386734 0.15692602 0.26368853 0.1710177 0.27438992 0.24259442 0.1621656 0.14753218
0.11903401 0.15852177 0.052922588 0.14027156 0.115554765 0.2276095 0.08357294 0.17497875
0.25259262 -0.05928852 0.27885476 0.19368806 0.27170542 0.25962615 -0.046668205 0.071707964
0.23374864 0.20360109 -0.05191489 0.2996402 0.2070337 0.239268 0.118430495 0.1480904
00000000: 763a 873e db32 293e 01c4 fbbc 414d 803e
00000010: 7926 833e 8ba4 f6bb 1163 02bd a944 f43d
00000020: 4239 0a3e d53c 783e 7f37 f9bc 9fd8 583e
00000030: cfd1 57bd 2d39 5c3e 4e7c 0cbd 83bf 723e
00000040: 7aee 673e 0cc5 893e 1e87 2f3e 9e21 193e
00000050: 9a94 333e 3081 5e3e 0404 86bc 156f 793e
00000060: 737b 0a3e dd37 7b3e 26c2 2dbd 5bab 3fbc
00000070: e99a 503e b1b9 43bd e593 553e 779c 133e
00000080: 11ff 323e 7f57 6c3e 4b84 75bb 889e ee3d
00000090: 3c9a 293e 1fdd 37bd a621 4f3e 7f07 703e
000000a0: 93a0 493e 7ff4 5d3e 62f7 883e 19e4 253e
000000b0: 1c20 2d3e 555d 7f3e 66ca 793e 89ac b03d
000000c0: 97e5 3f3e d973 893e f954 543e 7b0d 473e
000000d0: 21a3 7b3d a161 e83d 91e8 793e d15f 893e
000000e0: 53fa 843e 343c d73d 11e5 823e e751 7b3e
000000f0: 1ba5 3abd 3613 9a3e 67ee 423e b178 d93d
00000100: 4b0b 883e 21d3 023e bc24 373e 9afc 783e
00000110: 33e5 893d 27e4 f93d 44d4 cbbc ef26 83bd
00000120: 1ff2 543e a0b3 0b3e 33c2 5c3e a44b 6c3e
00000130: 375a 533e d7cb 643e bd2c 44bd e4b0 313e
00000140: 6827 1c3c 7d66 f13d d348 0d3e 8613 263e
00000150: 81aa 74bb f985 633e f2c4 2a3e 7cd2 443e
00000160: 60cc 5f3e 96c0 0f3e 9abe fb3d 509d f9bc
00000170: 21c2 093e a1e5 463e 5540 6d3e e40e 42bd
00000180: df96 c83d 42c2 7d3e 264b 003e 71b4 cb3d
00000190: 4272 363e f4d0 613e 11c5 5c3e 7463 7c3e
000001a0: 6dfb b23d 73ca 613e c94d f9bb 01b9 353e
000001b0: 93fc 433e 1402 463e c711 8d3e 769c 5c3e
000001c0: b8b9 623e 4ca3 79bd 47b6 803e f491 363e
000001d0: b252 613e ee03 323e 2768 87bc a7ce 5a3e
000001e0: aa1d 313e edf4 833e 3895 713c dcd1 1e3e
000001f0: b480 f83d ed17 743e 78b5 e13d a434 923e
00000200: 2eea 603e 4603 003e 10ab 493d 2147 773e
00000210: b0b7 613e 3be4 4dbd 2f95 c3bb 6e8e 343e
00000220: e575 5c3e 11dd 343e 3311 163d 94e5 653e
00000230: 701b e6bc 0818 353e 4280 fdbc 2d6b 663e
00000240: 725b 373e 7120 643e 45a9 1b3e e5ec 653e
00000250: d1b4 453e 2005 683e 1d04 843b 6fab 153e
00000260: f081 463e 08a6 373e 0c91 1fbd 9893 763d
00000270: 6148 843e 4888 0f3d f48e 5b3e 0e4b 483e
00000280: 5c09 6a3e a924 3f3e 2548 e4bc 9979 523e
00000290: 9039 3c3e e9d5 f43c d394 4a3e f24d fc3d
000002a0: f193 083e 883f a63d 413e 353e 8fad 133e
000002b0: ee7a ff3d f41e e43d 4098 933e c53f e43d
000002c0: 0bf7 d83c 3114 f33d 3a4e 7e3e 3551 313e
000002d0: 3d34 803e 20eb 12bd 2e16 5e3e 100f 333e
000002e0: 6f5f 793e 2ebc 913e fed4 4c3e 28cb a53d
000002f0: b689 0c3d 05c5 1b3e c234 f03d 5e41 c63d
00000300: 4932 003e 2f45 7b3e e89f 873e 4363 6f3e
00000310: 3b10 81bd 683f 7b3e 7213 98bd 27dd adbc
00000320: 0f5c 4a3e b795 873e 81df 823e 5f4e 3d3e
00000330: 3b95 5c3e 53ca 783e 7c73 8ebc 0e85 733e
00000340: d335 13bc 4744 5e3e 8b6b 723e bda8 be3d
00000350: fa6c 2cbd 9b37 533e 8ddc e33d af13 5b3e
00000360: 8aeb 7a3e 9b35 583e e9bf 293e ef03 86bc
00000370: ce61 893e 0271 8a3e f52f 803e e6e7 4fbd
00000380: 8514 093e 37b1 203e 2f02 873e 441f 2f3e
00000390: d67c 8c3e ac6a 783e bd0e 263e ad12 173e
000003a0: 1ac8 f33d 8853 223e 5bc5 583d 59a3 0f3e
000003b0: faa7 ec3d 7712 693e 4a28 ab3d a12d 333e
000003c0: d253 813e 85d8 72bd 0dc6 8e3e 2a56 463e
000003d0: f91c 8b3e b8ed 843e 2927 3fbd a0db 923d
000003e0: ce5b 6f3e ce7c 503e b5a4 54bd 716a 993e
000003f0: a400 543e ac02 753e b08b f23d 03a5 173e

fc.3.bias f4 [4]
0.17199822 0.06300065 0.18853168 0.1541085
00000000: 4d20 303e 7c06 813d 730e 413e 9ece 1d3e
